anomaly_detection_model.pth (torch, 15049 bytes, 20 tensors)

encoder.0.weight f4 [32, 10]
000000 55 f5 ce 3d ca ec 5f 3e 0a ee 82 be 30 b0 d9 3c
       0.10105387 0.21867672 -0.25572234 0.02657327
000010 b8 e0 61 be c8 c8 76 be a4 76 e4 bb 21 87 21 3e
       -0.2205838 -0.2410003 -0.006972151 0.15774204
000020 1a 03 d4 3d 16 53 3a 3d 14 fd 27 3e d3 1f 2b 3e
       0.10352154 0.045489393 0.16405135 0.16711359
000030 6d 2f b0 3d 87 8b 48 be a0 de 86 be 7f fe 2e be
       0.08602796 -0.19584475 -0.26341724 -0.1708927
000040 bb 61 44 bc 03 52 19 be 80 5a 89 be 7d b6 3d be
       -0.011986191 -0.14972691 -0.2682686 -0.18526645
000050 f7 15 2f 3c 01 55 61 be 4e 16 73 3e 1d 7c d7 3c
       0.010686389 -0.22005083 0.23738977 0.026304299
000060 6e 2f 8b be 29 35 dd 3d 1b 0e 95 be 93 0b 20 bc
       -0.27184623 0.10801155 -0.29112324 -0.0097683845
000070 fc 2f 8d be 98 67 89 3e d4 54 09 3e 53 22 90 bd
       -0.27575672 0.26836848 0.13411266 -0.07037797
000080 8d e8 10 be 02 72 90 3e 15 5f 5f be ff a7 ee bc
       -0.14151211 0.2821198 -0.21813615 -0.029132841
000090 a2 b3 5a 3e 2d b9 6f bd 54 6a 59 3e f1 32 8c bd
       0.21357587 -0.058526207 0.21231967 -0.06845654
0000a0 1a 24 2e be 71 11 b6 3c bf 31 db 3c 56 eb 7f be
       -0.17005959 0.022225114 0.02675712 -0.24992117
0000b0 a5 82 d2 bd e1 7c 98 3e f0 6d d3 3c bd 81 95 be
       -0.10278825 0.29782775 0.025809258 -0.29200545
0000c0 e2 24 cb bd 23 a3 89 be 52 b0 7c 3e a3 43 8e 3b
       -0.09919144 -0.26882276 0.24676636 0.004341559
0000d0 f4 5a 39 3e a8 68 05 be c7 e9 9b be cb bb 43 3e
       0.18101102 -0.13028204 -0.30451795 0.19114606
0000e0 e0 9c ec 3d e9 30 50 3e 45 d7 99 be c7 08 63 be
       0.11553359 0.20331158 -0.3004705 -0.22171317
0000f0 56 27 a2 3d 4c b8 28 be c8 33 7b be 3e da 4a 3e
       0.07917659 -0.16476554 -0.24531472 0.19809815
000100 ad a0 65 3e ac 48 a7 3d 3b e8 8d 3e fd f8 96 3e
       0.22424574 0.08168158 0.2771624 0.29486838
000110 3c f3 89 be 8a b8 a1 3b b6 a8 75 be c4 e5 8d 3e
       -0.26943386 0.004935329 -0.2399014 0.2771436
000120 f5 a1 36 3c 22 5c a6 bc 7b ff 73 bd 89 b4 7b 3e
       0.011147012 -0.020307604 -0.059569817 0.24580587
000130 f7 7d 6e be 85 2b 71 be f4 5b 76 be 6b 6d bb bd
       -0.2329024 -0.23551758 -0.24058515 -0.09151729
000140 60 10 b3 39 88 b9 84 3e 6f a6 61 bd 17 ad 88 be
       0.0003415374 0.259228 -0.055090364 -0.26694557
000150 39 0c 9f 3e a1 83 2f be 3e 3a 34 be f0 57 9d 3e
       0.31064013 -0.17140056 -0.17600343 0.30731153
000160 14 0f 47 bd 3c ca 95 be 4c ac 7d be 9e 52 87 3e
       -0.048598364 -0.29255855 -0.24772757 0.2643022
000170 9a 98 b8 bc ac e7 8e 3e 10 25 5f be fa 0c a6 bd
       -0.022533704 0.27911127 -0.21791482 -0.08107944
000180 2a 49 2a 3e 4c 6a b8 bd 76 d2 a1 3e b7 52 30 be
       0.16629472 -0.090046495 0.3160588 -0.17219053
000190 08 46 82 bd 28 8b aa 3d d7 55 65 be e0 06 7e 3e
       -0.06361014 0.08327323 -0.22396027 0.2480731
0001a0 25 44 d1 bd 29 a9 de 3d 93 12 da 3d 4b e7 dd bd
       -0.10218076 0.108721085 0.10648074 -0.10835131
0001b0 a6 3d 72 3e eb b9 3a 3e 0c 9d 68 3e 0c cd c3 3d
       0.2365633 0.18234985 0.22716159 0.09560594
0001c0 c9 4f 95 3e 39 3f 51 3e 13 14 83 3e 7d e4 48 3e
       0.29162434 0.20434274 0.25601253 0.19618411
0001d0 fb b4 9c 3e ad 08 27 3e d2 9a 3a 3e e6 90 86 3e
       0.30606827 0.16311903 0.18223122 0.26282424
0001e0 57 36 5c be a6 4a 9b 3e 1d 4e 55 be 0d 2d 7b be
       -0.21505104 0.3033039 -0.20830579 -0.24528904
0001f0 85 7e 83 3e 1b 77 9b be 31 fb 17 3e f1 79 74 3e
       0.25682464 -0.30364308 0.14841916 0.23874642
000200 94 f5 66 bd 82 8c b5 bd e3 f7 df 3c 17 b9 fe bc
       -0.056386545 -0.0886469 0.027339881 -0.031094117
000210 36 ae 87 be a2 ff 0b be 30 29 17 be 74 a1 82 be
       -0.265001 -0.13671735 -0.14761806 -0.25513804
000220 be 7f 98 be d9 5a a9 3d 21 d5 29 bd 47 5e 7a 3e
       -0.2978496 0.08269281 -0.04146302 0.24450026
000230 46 76 c2 bd e0 b3 04 be 9b e9 72 3e c8 14 69 be
       -0.09495215 -0.12959242 0.23721926 -0.22761834
000240 8d 60 70 3e c4 63 3d bd 38 34 60 be 97 79 9d 3e
       0.23474331 -0.046237722 -0.2189492 0.30756828
000250 af 8c a8 3d dc 06 96 3e 66 52 e8 3d f0 1a c1 3b
       0.08229958 0.29302108 0.11343841 0.005893104
000260 40 e0 35 3e 5b 2c c2 3d b7 23 94 3e 7c f9 87 be
       0.17761326 0.094811164 0.28933498 -0.2655753
000270 df fa 9b be 3e 21 29 be 80 df 4a be d5 fc 54 3e
       -0.30464837 -0.16516587 -0.19811821 0.20799573
000280 dd 8f 8d be 4e 7b 64 3e a6 76 f5 bc 69 ed e8 3c
       -0.2764882 0.22312662 -0.029963803 0.028433518
000290 13 b8 fd bc 97 71 8c be 10 39 65 3e e8 49 5c 3e
       -0.030971562 -0.27430412 0.22385049 0.21512568
0002a0 11 cf ba 3d cc 8b b8 3d e8 cd 55 be ee 57 8e be
       0.09121526 0.09011039 -0.20879328 -0.2780146
0002b0 1d 3e 2b 3e a6 62 35 be 4f 25 ba bb e1 95 0a 3e
       0.16722913 -0.17713413 -0.005680717 0.13533737
0002c0 ee be 3f 3e f7 b8 8c bd 4c e6 ef 3d ba 8c 37 3e
       0.18725178 -0.06871217 0.117138475 0.17924777
0002d0 db a5 74 bd 73 d1 47 3e 6f b3 77 3e 34 16 82 3e
       -0.059728485 0.19513492 0.24189542 0.25407565
0002e0 37 f1 4d 3e 56 82 8a 3e 7b 8e 01 bd b7 61 db 3d
       0.20111547 0.27052563 -0.03163002 0.10711997
0002f0 e8 b5 97 3e 61 f6 27 be bc 5b 87 be f3 63 58 3d
       0.2963097 -0.1640258 -0.26437175 0.052829694
000300 90 8b f9 bd 2f 07 93 be 30 c5 78 be c0 f5 0e 3e
       -0.121848226 -0.28716418 -0.24293971 0.13960934
000310 2a b3 db 3c 21 ad 23 3d b9 61 76 bd da 30 00 3c
       0.02681883 0.03996003 -0.06015179 0.007824147
000320 a8 c5 99 be 7c 2d 32 bc cb 0c cc 3c 16 96 7c 3e
       -0.30033612 -0.010875102 0.024908444 0.24666628
000330 ca 96 92 bd ec 4c 70 be c5 7f 28 be d7 c1 63 3e
       -0.07157667 -0.23466843 -0.1645499 0.22241913
000340 ac 46 b7 3d e1 78 91 bb 50 28 6a 3e 21 e1 a0 3d
       0.089490265 -0.0044394587 0.2286694 0.0785544
000350 69 a7 c2 3d b5 c3 ab bc 34 3c eb 3d 77 64 9f 3e
       0.09504587 -0.020967344 0.11486092 0.31131336
000360 c3 cf f5 bd a1 0a 9a 3c f5 bf 0a 3e 34 bd 8c be
       -0.12002518 0.018803896 0.13549788 -0.274881
000370 ba 82 88 3c 77 b9 41 be 5e 35 28 be 7d a0 30 3e
       0.016663898 -0.18918405 -0.16426608 0.17248721
000380 d9 c9 67 be a2 49 94 be 07 da 92 3c 81 37 3f 3e
       -0.22635593 -0.28962427 0.01792623 0.18673517
000390 18 e2 89 3e 26 92 36 bd 3b ee 40 bd 79 2d 20 be
       0.26930308 -0.04457297 -0.047102194 -0.15642346
0003a0 21 a1 73 bd f2 dc 3b 3e f8 7d 1b 3e a7 60 15 3e
       -0.059479836 0.18346003 0.15184772 0.14587651
0003b0 b1 dc 7a be 30 1c 57 be 3b eb 12 be 1e 5a 01 be
       -0.2449825 -0.21006846 -0.14347546 -0.12632033
0003c0 0c 4e 9a be 6b f5 9e 3e 4f ac 0e 3e 38 25 d8 3c
       -0.3013767 0.31046614 0.13932918 0.026384935
0003d0 89 2f 82 3e 70 8e 2a be 49 5a 9d 3e 1a 2d 53 3e
       0.2542689 -0.16655898 0.30732945 0.20622674
0003e0 22 2c b4 bd 30 46 0d 3e 29 0d 81 be ba ee 03 3e
       -0.0879748 0.13796306 -0.25205353 0.12884036
0003f0 77 c3 c7 3d bc be 99 bc b6 60 4a be 42 13 24 3e
       0.09754079 -0.018767707 -0.19763455 0.16022971

encoder.0.bias f4 [32]
000000 f2 44 f3 3d 60 40 ae 3d 19 71 88 3d c9 6b 48 3e
       0.11878385 0.08508372 0.06662197 0.19572367
000010 ff a7 5b be 8c 31 87 bb 71 28 77 be 74 9e 03 be
       -0.21450804 -0.0041257795 -0.24136521 -0.12853414
000020 b9 02 2d 3e 4d 7b 0e 3e 6a 24 4c 3e 75 83 93 be
       0.1689557 0.13914223 0.19935766 -0.2881123
000030 a9 20 17 be c7 f6 8e bc 23 34 ee 3d fe 1e f5 3d
       -0.14758553 -0.017451657 0.11631038 0.11968802
000040 8e 31 92 bc 04 bf 9c be df f6 f7 3d ba 98 29 3d
       -0.017845895 -0.30614483 0.12107634 0.041405417
000050 45 a3 87 be 97 cb 92 3e ed 43 61 bc ba 1b 2c 3e
       -0.26491752 0.28670952 -0.013749105 0.16807452
000060 7e 51 5d be 6f 89 30 be f3 e3 31 3e 48 97 1f 3e
       -0.21613118 -0.17239927 0.17372112 0.15585053
000070 ed 3b 4e bd fb 0d 85 3d 21 4d 12 be da 91 1b 3e
       -0.05035012 0.06496807 -0.14287235 0.15192357

encoder.2.weight f4 [16, 32]
000000 af 7b 15 3e eb 37 22 3d 81 36 43 bd 64 1f 2d 3e
       0.14597963 0.03960411 -0.0476594 0.16906506
000010 60 90 2b 3e 8b 2f 65 bd 3b ef 17 3e 92 dd d8 bd
       0.16754293 -0.055953544 0.14837353 -0.10589136
000020 63 bb b4 bd ac ce 68 bd 7a a9 47 bc d7 68 ee bd
       -0.08824804 -0.056837723 -0.012186402 -0.1164109
000030 31 b2 12 3e cd 28 1c be d1 13 be bd 5d 7c 35 bd
       0.14325787 -0.1524994 -0.092811234 -0.044308055
000040 8c 30 9a 3d fd 9b 24 be 24 74 ff bd 5f e7 69 3d
       0.07528791 -0.1607513 -0.12473324 0.05710542
000050 48 54 2e 3e c5 18 0f 3e c6 a3 18 be 3b 81 f7 bd
       0.17024338 0.13974293 -0.14906225 -0.12085196
000060 a5 dc 4d 3d 79 5c 94 3b 46 94 30 bd c4 e6 b2 3d
       0.05025925 0.004527625 -0.043110155 0.08735421
000070 97 9d dc 3c b0 30 3c 3d 36 36 19 be 7c bd aa 3d
       0.026930613 0.04594487 -0.14962086 0.083369225
000080 bd a4 2f be 2b b5 0b 3e f1 a0 1a be c2 1d 97 bd
       -0.17152686 0.13643329 -0.15100457 -0.07378723
000090 9f ac 8b bc 00 43 22 be 2b 54 d2 3d b7 57 10 3e
       -0.017050086 -0.15845871 0.1026996 0.1409596
0000a0 05 dd d8 3d 51 be 2f 3e 89 d5 a4 3d ae dd 2a be
       0.10589031 0.17162444 0.08048541 -0.16686127
0000b0 96 c4 30 be a6 fd e0 bd c7 13 0b be ff 51 4b 3d
       -0.17262492 -0.109858796 -0.13581763 0.049638744
0000c0 ee c6 ca 3d c0 7b e4 3d a7 e8 2f be 89 e8 d9 3c
       0.09901224 0.11156416 -0.17178594 0.02660014
0000d0 8c 60 0d 3e 8d b1 67 3d 45 32 31 bd c8 67 84 3c
       0.13806361 0.05656581 -0.04326083 0.016162768
0000e0 67 55 94 bc 71 a0 cb bc db f3 50 bd 1e 9f 0f be
       -0.01810713 -0.024856778 -0.05101381 -0.14025542
0000f0 16 ff 2b be d1 83 92 bc 9c 62 24 be ca 53 db bd
       -0.16796526 -0.01788512 -0.16053241 -0.10709341
000100 54 d4 5b 3d 26 bc 43 3c 07 ad cd 3d 40 9a 2a bd
       0.05366929 0.011946714 0.10042768 -0.04165101
000110 38 5a 10 3d 99 9e 66 bd ad e7 c0 3c 5c 50 1d be
       0.03524229 -0.056303594 0.023547972 -0.15362686
000120 5c 06 8c 3d ea af c6 3c 1b 99 ba bd 80 37 0b 3e
       0.068371505 0.024253804 -0.09111234 0.1359539
000130 06 52 ce bd 5c af e2 3d 67 32 04 3e 2e 8a e6 bd
       -0.100742385 0.110686034 0.12909852 -0.112568244
000140 d2 3e b7 bd 82 80 95 bc 1c cc 87 3c 7c 0a 89 bc
       -0.08947529 -0.018249754 0.01657682 -0.016728632
000150 e4 64 13 be ba 2f c2 3d a5 b9 85 bd e1 92 09 be
       -0.14393955 0.09481759 -0.065295495 -0.13434936
000160 04 9c 26 bd 4f 24 45 bd 72 17 12 be 8c 91 08 3d
       -0.04067613 -0.04813033 -0.14266756 0.03334193
000170 e3 8d 8d 3d 82 2d b9 3d a4 98 b6 bd 6b fb 1c 3d
       0.06911828 0.09041883 -0.08915833 0.03832571
000180 a4 86 95 bd db 6c 08 3e 3d 75 2e 3d fa 46 4e 3d
       -0.07301071 0.13322775 0.042592276 0.050360657
000190 03 b5 21 be f7 c6 ed bd ab cf d7 ba 57 c1 7e bc
       -0.15791707 -0.11610215 -0.0016465088 -0.0155490255
0001a0 17 d0 02 3e b1 62 ef 3d a3 f2 9c 3d a0 37 a9 3d
       0.12774692 0.11688746 0.07663467 0.08262563
0001b0 3b 93 57 3d 18 36 b1 bd da 8a b8 3d 48 82 2e 3e
       0.052630644 -0.08652896 0.09010859 0.17041886
0001c0 ca 80 b8 bc 2c d7 f8 3d 3c 1b c8 3d d0 38 e1 bd
       -0.022522349 0.12150416 0.097708195 -0.10997164
0001d0 56 af 2d bd f7 96 79 3d 9d d7 04 be 8f 46 1f 3d
       -0.04240354 0.060934987 -0.12972875 0.03888565
0001e0 95 a5 13 be 5b 7f e1 3c 10 30 3d 3d 04 ff 4b 3b
       -0.14418633 0.027526548 0.046188414 0.0031127343
0001f0 13 e6 1b 3e 6e 7b fb bd 58 0a 06 3e ec ed ac bd
       0.15224485 -0.12279402 0.13089883 -0.084438175
000200 4d 58 8b 3c 59 da 5e bc 34 93 f1 bc c0 ff 0b 3d
       0.017009879 -0.013601863 -0.029489137 0.03417945
000210 c9 84 c1 bd 46 85 c9 3b b6 f2 3a 3d 10 52 f1 3d
       -0.09449155 0.0061499206 0.045641623 0.1178323
000220 ab 7a 85 bd d0 2c c4 3d 38 96 ef 3d 42 7f 0c 3e
       -0.06517538 0.0957886 0.11698574 0.1372042
000230 fa f1 88 bd b5 fc 9f bd 02 e8 a2 3c 6b 2d f0 3d
       -0.06686778 -0.07811872 0.01988602 0.11727413
000240 23 68 99 bd 61 d0 45 3d 8c 62 10 3e 88 95 13 3d
       -0.07490566 0.04829443 0.14100093 0.036031276
000250 15 da 09 be fe af 44 3d de 6f 8d 3d 6f bb a7 bd
       -0.13462098 0.0480194 0.069061026 -0.08190047
000260 99 cd f9 3d 09 bd 71 bd 84 c2 94 bd 00 01 da 3d
       0.12197418 -0.05901817 -0.072636634 0.10644722
000270 39 7c bf 3d 57 f1 18 be 1a ce 56 3d 52 40 0e 3e
       0.093498655 -0.14935814 0.052442648 0.13891724
000280 be 6a 15 3e cd e6 10 be 68 22 23 3e 11 c8 1d be
       0.145915 -0.14150544 0.15931094 -0.1540835
000290 a2 b2 d2 bc 4c 83 53 3d 48 43 fd bc 97 c8 88 bc
       -0.025719944 0.051638886 -0.030915871 -0.016697211
0002a0 3b b9 91 3d 30 d2 78 bd bb 21 a4 bd 69 d6 88 3d
       0.07115408 -0.060747325 -0.08014246 0.066815205
0002b0 9c b4 76 3d 6e 7a f2 3d 97 83 2b 3e 21 1e f0 bd
       0.060230836 0.11839758 0.16749416 -0.11724497
0002c0 f8 3c 99 bd b6 6b 40 bc b7 20 33 3d 1a f5 20 3d
       -0.07482332 -0.01174443 0.04373237 0.039296247
0002d0 89 bc e7 bd d0 36 0b 3e b1 02 85 3d bf 46 88 3d
       -0.11315257 0.13595128 0.06494654 0.06654119
0002e0 b9 f5 28 3d 43 98 d6 bd a5 0f ee bd 1a 64 b9 3d
       0.041249964 -0.1047826 -0.11624078 0.09052296
0002f0 cd 93 43 bd b1 29 64 bd 33 ea 43 3c e1 bd 22 3e
       -0.047748376 -0.055703823 0.011957693 0.15892746
000300 a0 41 3a 3c 38 6f 17 3d c6 6a 26 be 5e 0c eb bd
       0.011368185 0.0369713 -0.16251668 -0.11476968
000310 e8 24 86 bd e3 02 0a be b8 b3 1b bd 36 98 e2 bd
       -0.06550008 -0.13477664 -0.03801319 -0.11064188
000320 00 4b 9d 3d 78 8e e8 bd 19 19 e0 bd c5 77 28 3d
       0.07680321 -0.11355299 -0.10942287 0.041129846
000330 0c a2 16 bd 0a a8 86 3d 42 f1 c1 3d 34 23 c7 3d
       -0.036775634 0.0657502 0.094698444 0.09723511
000340 d1 62 2c be 2a 9a 2a bd 2a c0 1a 3e 8f 72 2f 3d
       -0.1683457 -0.04165093 0.15112367 0.04283386
000350 f2 97 f9 3d 77 00 70 3d b6 4c 50 bd c4 94 13 3e
       0.121871844 0.058594193 -0.050854407 0.14412218
000360 42 83 82 bd bd 68 34 be 4e a7 e2 bd 9c 0a 28 3e
       -0.06372692 -0.1761808 -0.11067067 0.16410297
000370 3f ce 80 bc 9d 49 05 be fa f8 13 3e 0f 28 b1 3c
       -0.015723346 -0.13016362 0.14450446 0.021625547
000380 b5 d3 2b 3e 24 aa 08 3e f8 bc 32 3c dd bb c3 bd
       0.16779979 0.13346153 0.0109093115 -0.095573165
000390 3e 30 1e 3e 9c 51 e4 bd 5c b4 6b bd 1c f6 0c 3d
       0.1544809 -0.11148378 -0.05754505 0.034414396
0003a0 24 1b c7 bd 86 ff eb 3d 04 b1 83 bd 53 96 94 bd
       -0.097219735 0.115233466 -0.064302474 -0.072552346
0003b0 f5 2f e6 3d fd 86 fb 3d 00 04 82 3c 4c ea d0 3d
       0.11239616 0.12281606 0.015871048 0.102009386
0003c0 13 8c 15 be 4e ec 33 3e 35 75 fe bd 9d 93 73 bd
       -0.14604215 0.17570612 -0.12424699 -0.059466947
0003d0 ef 59 b5 bc 07 08 34 3e 84 8f 26 3e 7f 42 02 be
       -0.02213761 0.17581187 0.16265684 -0.12720679
0003e0 75 ff 2e be 71 31 df bd c2 fe f8 3c 58 8c 0a 3e
       -0.17089637 -0.10898102 0.030394915 0.135301
0003f0 19 4d ce 3a 39 af 2b be 3b 9d c6 bd eb 49 c1 3c
       0.001573953 -0.16766061 -0.09697958 0.023594817

encoder.2.bias f4 [16]
000000 e8 84 2c be a1 8d c6 bd 96 e8 00 bd 7e 20 83 3d
       -0.16847575 -0.09694982 -0.03147181 0.06402682
000010 45 77 8d 3d 1f 3e 92 3c b5 01 5e 3c 38 b7 8f 3d
       0.069075145 0.017851887 0.013550212 0.07017368
000020 83 2c ba 3d ab 91 34 3d 17 07 94 bb 9b 7f f5 bd
       0.09090521 0.044084232 -0.0045174467 -0.119872294
000030 44 05 2a be 1b ba 23 be 6d 53 1f be 27 4d 0d bd
       -0.16603571 -0.15988962 -0.15559168 -0.034497406

encoder.4.weight f4 [8, 16]
000000 a4 d5 3a be 68 75 15 bd 24 f5 8b bd c2 a7 41 be
       -0.1824556 -0.03648892 -0.06833866 -0.18911651
000010 f2 a2 75 3e fc 92 78 be b6 6e 3b 3e b0 17 bc bc
       0.2398794 -0.2427482 0.18303952 -0.022960514
000020 ec e2 e6 bd 10 6e 25 3e c8 94 14 3d ae eb 69 be
       -0.11273751 0.16155267 0.0362747 -0.22843811
000030 dc af 37 be a0 d6 df bc 00 b8 e7 3c 1c 5b e2 3d
       -0.17938179 -0.02732402 0.02828598 0.11052534
000040 92 78 58 be 1c cf dd 3d d0 a6 ba 3d b2 77 7d be
       -0.21139744 0.108305186 0.09113848 -0.24752691
000050 74 27 bf 3d 84 c7 08 3e 30 9a 80 bd 0e bf 64 be
       0.09333697 0.13357359 -0.06279409 -0.22338507
000060 50 b7 34 bd 00 c0 ad 37 e8 e3 27 3d 20 24 44 3e
       -0.044120133 2.0712614e-05 0.040988833 0.19154406
000070 ce 70 22 3e 34 c8 8d 3d a8 9c e5 bd ec 47 36 3e
       0.15863344 0.06922951 -0.112115204 0.17800874
000080 10 76 11 be 62 4c 30 3e 7e 4b 6c be de 91 46 be
       -0.14205194 0.17216638 -0.23075673 -0.19391581
000090 18 1e 85 bd 48 92 5c 3d 68 1e a6 3d e4 8a 62 3e
       -0.064998806 0.053850442 0.08111268 0.22123295
0000a0 9c 65 8f 3d c8 5d 1f 3e cc eb 38 3e b6 ca 7d be
       0.07001802 0.15563118 0.180587 -0.2478436
0000b0 70 17 3d bd a8 18 48 bd 50 a3 3c 3d 6c 29 3c be
       -0.04616493 -0.04885164 0.046054184 -0.18375176
0000c0 c0 87 4b bd 26 de 6f 3e e8 4a 4f 3e 8e 0b 3d be
       -0.04969001 0.23424587 0.20243418 -0.18461439
0000d0 62 33 71 be 00 a7 a1 3c d8 39 3c 3d 82 0a 71 3e
       -0.23554757 0.019732952 0.0459536 0.23539165
0000e0 ec 68 aa bd 94 66 c5 3d 90 8f 4f 3d 00 1d 3c be
       -0.083207935 0.09638706 0.05067402 -0.18370438
0000f0 f8 65 c7 3d 38 b3 27 3e 44 76 b9 3d 58 08 03 be
       0.09736246 0.1637696 0.090557605 -0.12796152
000100 e0 ac 5d 3e d4 78 ea 3d 0a 35 44 be 60 c6 7b bc
       0.21647978 0.114488274 -0.19160858 -0.0153671205
000110 94 2a 24 3e 90 af df bc aa ea 63 3e 2c d5 42 be
       0.16031867 -0.027305394 0.22257486 -0.19026631
000120 d6 6c 5a be 6a 98 66 be c0 e1 dd 3c 94 d6 91 bd
       -0.2133058 -0.22519079 0.027085185 -0.07121006
000130 dc 78 1e 3e 6e 81 14 be 38 14 31 be 34 41 f8 bd
       0.15475792 -0.14502499 -0.17292869 -0.121218115
000140 62 58 0f be 80 ab 3d bd b0 8c bc bd 98 23 30 3d
       -0.13998559 -0.046306133 -0.092065215 0.043002695
000150 48 64 23 bd 3c 0b 65 be 20 45 f0 3c 82 ab 4c be
       -0.039890558 -0.22367567 0.029329836 -0.199873
000160 30 f6 1b be c8 e2 4d bd f2 de 19 3e 98 0a 3d be
       -0.15230632 -0.050265104 0.15026453 -0.18461072
000170 80 57 ad 3c bc c8 ec 3d 88 a8 90 3d c0 a2 c8 bb
       0.021159887 0.115617245 0.07063395 -0.006122917
000180 2a 98 6b 3e 06 55 10 be 16 c0 5b be b0 0b f4 bc
       0.23007265 -0.14094934 -0.21459994 -0.02979073
000190 22 32 0a 3e a0 5e 01 3e 54 28 c8 bd 6e ed 1f 3e
       0.13495687 0.12633753 -0.09773317 0.15617916
0001a0 30 1b 2d 3d a4 9d 00 be e4 ae a0 3d 7e 09 2d be
       0.042262256 -0.12560135 0.07845858 -0.16898152
0001b0 6c 61 15 3e 3c 51 6e be 76 a0 5f 3e 40 20 28 bc
       0.14587945 -0.23273176 0.21838555 -0.010261595
0001c0 74 2b 81 bd 98 6c b4 bd 1c 41 9c 3d f0 53 4c 3d
       -0.06307116 -0.08809775 0.07629606 0.049884737
0001d0 64 54 52 be 60 49 d1 bc 36 79 30 3e 40 1b 42 3c
       -0.20540005 -0.025547683 0.17233738 0.011847317
0001e0 0a 51 2e be a4 ec 79 be dc 7e d8 3d a0 8c c5 3d
       -0.17023101 -0.24406677 0.105710715 0.09645963
0001f0 0c 62 b4 bd 3c e7 25 be 00 50 06 bd d8 84 8f 3d
       -0.088077635 -0.1620149 -0.032791138 0.0700776

encoder.4.bias f4 [8]
000000 cc 71 c6 bd 9e e2 18 3e 48 87 56 3e dc 57 3e be
       -0.09689674 0.14930198 0.20950043 -0.18588203
000010 3a 75 54 be c0 2a d0 bb 2a 5e 10 3e f2 5e 51 be
       -0.20747843 -0.0063527524 0.1409842 -0.20446375

encoder.6.weight f4 [4, 8]
000000 ec 19 54 be 5b aa d9 3d df 91 40 3e 82 88 b0 be
       -0.20713013 0.10628196 0.18805645 -0.34479147
000010 21 c8 94 bc d0 44 e3 bd ba 12 61 3d 2c 12 70 be
       -0.018161835 -0.11097109 0.0549495 -0.23444432
000020 78 8a ee bd 87 ab f6 bd 80 f8 38 be 5d 32 a3 3d
       -0.116475046 -0.12044435 -0.18063545 0.079685904
000030 22 98 8c bd 5d 24 92 3e 72 25 a6 be 4c 3b f2 bd
       -0.068649545 0.28543368 -0.32450444 -0.11827716
000040 43 4d 11 be cf 8e b4 3e 65 bc 80 3e ed 68 9e 3b
       -0.1418963 0.35265204 0.25143734 0.0048342855
000050 0c 85 e7 bd db 46 7a 3e 74 10 11 3d 55 e3 b1 3d
       -0.113046736 0.24441092 0.03541608 0.08685938
000060 a7 3a 7f be 19 13 94 3e 0b bb 45 3e 2f 8e 9c be
       -0.24924718 0.2892082 0.19309632 -0.30577227
000070 2f 67 63 be c0 d8 4e 3c 50 3f 21 be fb d7 2e 3e
       -0.2220733 0.012624919 -0.15746808 0.17074578

encoder.6.bias f4 [4]
000000 58 63 7b 3e c9 ea 96 be 75 71 ee 3d 98 ce d9 3d
       0.24549615 -0.29476002 0.11642734 0.10635108

encoder.8.weight f4 [2, 4]
000000 e0 cb f7 bc d2 df b5 be 5c 33 7c 3e 4c b8 54 be
       -0.030248582 -0.35522324 0.24628967 -0.20773429
000010 72 6a e1 be b8 45 d5 3d e8 dc 37 be 6c 23 11 3e
       -0.44026524 0.104136884 -0.17955363 0.14173669

encoder.8.bias f4 [2]
000000 ee 1c 65 3e 77 bd 9e be
       0.22374317 -0.31003925

decoder.0.weight f4 [4, 2]
000000 61 f6 33 bf e9 f2 ea 3e cd 5f 7a be 34 1d 16 bf
       -0.7029782 0.4588845 -0.24450608 -0.5863831
000010 16 d3 da 3e 57 17 f6 be d1 1a a6 3e 45 64 fe be
       0.4273917 -0.48064682 0.32442334 -0.49685875

decoder.0.bias f4 [4]
000000 42 e6 ec 3e 8b 19 0d 3e f4 00 cf 3e e3 b9 92 bd
       0.46269423 0.13779275 0.40430415 -0.07164361

decoder.2.weight f4 [8, 4]
000000 ae 64 9b 3e 4c 3c 64 be e8 a6 83 3e 2b 29 74 3e
       0.3035025 -0.22288626 0.25713277 0.2384383
000010 49 15 98 3e db f1 94 3e ac 36 1d be 88 c0 1c be
       0.2970374 0.2909077 -0.15352887 -0.1530782
000020 60 ea b1 3e f8 15 d3 be f8 69 ad 3e 40 fb 39 bc
       0.34749126 -0.41227698 0.3386991 -0.011351407
000030 73 0b 44 3b d2 08 8a 3e 99 2e f3 3e ca 50 d9 bc
       0.002991405 0.26959854 0.4749649 -0.026527781
000040 b4 7d 56 be 30 06 0b be f6 c9 86 be 6a 02 c1 3e
       -0.2094639 -0.13576579 -0.2632596 0.37697154
000050 b0 a0 b2 3e 59 b3 a4 bc 50 86 b9 3e 51 56 d1 3e
       0.3488822 -0.02010505 0.36235285 0.40886167
000060 e4 d3 a4 3e 5c c8 a8 be 30 f0 88 3e f2 80 fa bb
       0.3219291 -0.32965362 0.2674575 -0.007644766
000070 54 e0 d4 be 18 98 bb 3d d0 1c 95 3d 78 d6 cc 3e
       -0.415774 0.09159869 0.07280886 0.40007377

decoder.2.bias f4 [8]
000000 1e 34 44 3e 8b b7 cf 3e 6c d4 c6 be 45 32 ec 3e
       0.19160506 0.4056972 -0.3883394 0.46132103
000010 04 d4 65 be 15 f0 9b 3e cc e4 cd 3e fc d8 a7 be
       -0.22444159 0.30456606 0.4021362 -0.32782733

decoder.4.weight f4 [16, 8]
000000 ad 02 56 3c 7a 82 9c 3e 91 a3 4b be 21 e2 84 3e
       0.013062161 0.30568296 -0.19886614 0.25953773
000010 6c 73 8d 3e cc ea 9a 3e 0d a4 88 3e 33 97 76 3e
       0.27627122 0.3025726 0.2668766 0.24081115
000020 2b 58 a9 be 03 8e 19 bc 28 f6 36 be 8e 97 9c be
       -0.3307508 -0.009372237 -0.17867339 -0.30584377
000030 9d ce 01 be ab d5 5f be e6 b8 95 be d3 15 89 be
       -0.12676473 -0.21858852 -0.2924263 -0.26774463
000040 5e c9 93 3e 0d e5 94 be fd d5 88 be a3 6f a7 3e
       0.28864568 -0.29081002 -0.2672576 0.3270236
000050 23 eb ce bb d6 a5 b1 3e 77 1f d1 bd d8 21 41 3e
       -0.0063146516 0.34696835 -0.102110796 0.18860567
000060 8a 66 58 be 11 53 9e 3e ac b4 3e 3e 4e 90 98 3e
       -0.21132866 0.3092275 0.18623608 0.29797596
000070 f9 24 19 3e d3 7e 78 3d 5c 01 28 3d fb d8 b1 be
       0.1495551 0.060667824 0.04101692 -0.34735855
000080 14 97 f0 bd b4 27 5e 3e 85 ee 1d 3e ae ba 8d be
       -0.11747566 0.21694833 0.15423019 -0.27681488
000090 b7 df 17 3e 3c d4 17 be f3 c9 82 3c 6d 39 75 bd
       0.14831434 -0.14827055 0.015965438 -0.05986922
0000a0 44 be 6a 3e f7 b7 97 be 76 7d c7 bd 64 31 b1 3e
       0.22924143 -0.29632542 -0.09740727 0.34607995
0000b0 43 ff 83 bd b9 cc 83 be ac 45 70 3d ab f2 b5 3d
       -0.06445172 -0.25742128 0.058660194 0.08884176
0000c0 cf 9f 78 3e 7d 9e 89 3e 77 79 ad bd ad 62 88 3e
       0.24279712 0.2687873 -0.08470433 0.26637784
0000d0 a4 59 47 be 47 f9 8f 3d aa ae 81 3e 93 70 65 be
       -0.19467789 0.07029968 0.2532857 -0.22406225
0000e0 19 0d 69 be fc dc 80 3e d2 da f5 3d d9 a5 b9 bd
       -0.22758903 0.25168598 0.12004627 -0.09064836
0000f0 7d e3 84 be 3b c6 23 3d 5e 31 82 3e 4a 50 76 3d
       -0.2595481 0.03998397 0.2542829 0.060135163
000100 b5 1e 30 3e 9e d9 9b be 85 00 6e be e7 19 62 3d
       0.17199214 -0.30439466 -0.23242386 0.055200484
000110 48 31 a3 bb b0 13 0f be 14 cd 94 3d 2a 5e 92 be
       -0.00498024 -0.13972354 0.07265678 -0.28587466
000120 2d c6 8f 3e 48 90 29 3e db d0 2e 3e a5 34 a8 bd
       0.28080884 0.16558945 0.1707186 -0.08213166
000130 e1 c0 8c be 6e 07 a4 be 98 bc 0a 3e bf 92 70 3d
       -0.27490905 -0.32036918 0.13548505 0.058733698
000140 38 27 a5 3e d7 d6 30 be a5 9e b0 3e 30 ec 7f bd
       0.32256484 -0.17269455 0.34496036 -0.062481105
000150 33 f3 a1 be 04 81 3f 3e 93 9e 68 3e 8b 41 7c bd
       -0.3163086 0.1870156 0.22716741 -0.061585944
000160 30 6b 38 3e f1 62 22 3d 4a b6 22 be a7 a4 05 b9
       0.18009639 0.03964514 -0.1588985 -0.00012745206
000170 d5 6b 0b 3e 02 9f ae 3e c7 4b ab be 99 ce d4 3c
       0.13615353 0.34105688 -0.3345625 0.02597742
000180 6a 25 9f be 27 c1 41 3d 70 37 96 3e 07 0a 36 3e
       -0.31083232 0.047303345 0.2933917 0.17777263
000190 4d 58 61 be 6d 27 8e be 98 ba a7 3e ba 86 a5 be
       -0.2200634 -0.27764454 0.32759547 -0.3232935
0001a0 8f 7a 9d be f7 7c 29 3e 1b f3 b1 3e 98 bc a1 3e
       -0.30757567 0.16551577 0.34755787 0.31589198
0001b0 77 3c 4d 3e b0 a6 6d be 70 d9 5a 3e c5 da 64 3e
       0.20042597 -0.23208117 0.21372008 0.22349079
0001c0 fe 33 33 be 27 d5 4b 3e bf b7 d5 bd d2 17 a3 be
       -0.17500302 0.1990553 -0.104354374 -0.3185411
0001d0 a4 b6 e6 bd 80 f6 4d be 07 16 aa be 9d 27 6b 3e
       -0.11265305 -0.20113564 -0.3321993 0.2296433
0001e0 8d d2 8d 3d 08 c5 91 be 38 af 6e bd 44 ef 98 bd
       0.06924925 -0.28470635 -0.05827257 -0.07467511
0001f0 28 6b 9a 3b 23 1c 44 3d 23 f0 3e 3e 23 b0 8b 3d
       0.004712481 0.047878396 0.18646292 0.06820705

decoder.4.bias f4 [16]
000000 61 2a aa 3e 7c d4 05 3e 3f c7 99 3e cf 88 81 3d
       0.33235458 0.13069338 0.30034825 0.06324922
000010 e0 77 b5 bd 83 c7 3a be 48 60 44 be 32 8a 49 bd
       -0.08860755 -0.1824017 -0.19177353 -0.04920406
000020 7d f9 fa bd 31 14 7d 3e 42 50 1c 3e 46 bf 4a be
       -0.12254617 0.24714734 0.15264991 -0.19799528
000030 72 1f 54 be 56 0c 21 bc 59 13 e1 bd df 7f a6 be
       -0.2071512 -0.009829601 -0.109900184 -0.32519433

decoder.6.weight f4 [32, 16]
000000 c4 ab 58 3e 8c f7 cd bd 9a 4a 04 be 90 64 98 bd
       0.21159273 -0.100569814 -0.12919083 -0.07441056
000010 f0 59 cb 3d b0 31 62 3e 4a d9 29 3d 8b b7 33 be
       0.099292636 0.22089267 0.04146699 -0.17550485
000020 80 24 7e 3b 04 21 07 be a5 6d 98 3d 02 38 60 3e
       0.003877908 -0.13196188 0.07442788 0.21896365
000030 94 06 af bd 8a b1 6c 3e 10 24 55 3e f8 de bb bd
       -0.085461766 0.23114601 0.20814538 -0.09173387
000040 a1 77 f3 3d b4 7c cd bd d6 d5 e3 3d ef c5 b7 3d
       0.11888052 -0.10033551 0.1112477 0.089733
000050 a8 ff 78 3e 1c 65 2d 3e 01 55 89 3d 1a ce 08 be
       0.24316275 0.16933101 0.06705666 -0.13359872
000060 54 8a 9f bd 75 f9 ac bd fe e9 d2 3d 1e dd 4e be
       -0.07790056 -0.08446018 0.10298537 -0.20201537
000070 9a 50 6a be 38 46 7e 3e c8 95 58 bd e4 c8 b7 3d
       -0.2288231 0.24831474 -0.052877218 0.08973864
000080 12 27 22 3e f0 b8 ea bc d4 00 51 be 8e 3c 17 3e
       0.15835217 -0.028652638 -0.20410472 0.14769194
000090 70 14 f7 bc ee 6f 48 be 19 44 12 3e ce d1 51 be
       -0.030161113 -0.19573948 0.1428379 -0.2049019
0000a0 92 e6 5b be 36 17 e9 bd b7 e0 4a 3e dc 96 d0 bd
       -0.21474674 -0.1138138 0.19812284 -0.10185024
0000b0 70 bb 3b 3d 4e 09 6d be 3e 85 10 3e 98 8b 0f 3e
       0.04583305 -0.2314808 0.14113328 0.14018095
0000c0 3e 8a 01 3e 86 b5 08 be 4a e4 3f 3e dc ed e9 3d
       0.12650391 -0.13350496 0.18739429 0.11422321
0000d0 40 5d 07 be f2 85 22 3e 2e a7 87 bd 7c 6d 83 bd
       -0.13219166 0.15871409 -0.06623684 -0.06417367
0000e0 50 56 4b 3e 29 b7 b1 3d 77 32 63 3e 80 7e d7 bc
       0.19857144 0.08677513 0.2218722 -0.026305437
0000f0 12 b4 72 be ad 78 4d 3e c0 4e 9c bb 30 fd c1 bc
       -0.23701504 0.20065565 -0.00477013 -0.0236803
000100 c1 23 7d be 40 f2 d3 bc 78 a8 4d bd 54 c3 5a 3e
       -0.2472067 -0.02587235 -0.050209492 0.21363574
000110 44 25 1b 3e 5a b1 03 3e a7 1d b6 3c 4f c5 c2 bb
       0.15150934 0.12860623 0.022230936 -0.005943931
000120 00 9e 10 bc 3e 00 79 3e ed d8 16 3e d6 35 36 3e
       -0.008826733 0.24316499 0.14731188 0.17793974
000130 10 ea 84 3c 8c 57 b3 bb 18 f1 27 bd da 87 3e be
       0.016224891 -0.005473083 -0.04100141 -0.18606511
000140 ec ad 6e be 80 0e 1b bc b8 53 4b be 1c 80 84 3d
       -0.23308533 -0.009463906 -0.19856155 0.064697474
000150 72 f6 45 3e c4 e0 e2 3d d8 5a b5 3d c4 29 08 3e
       0.19332293 0.11078027 0.08855218 0.13297182
000160 aa 2e 52 be 30 f2 bb bd 58 6e 47 bd 48 27 00 be
       -0.20525613 -0.09177053 -0.048689216 -0.12514985
000170 18 5b f6 bd 5a e6 51 be 10 37 e8 bd d4 67 0f be
       -0.120290935 -0.20498028 -0.11338627 -0.14004451
000180 96 0f 7b be 80 ec 34 bb 30 89 98 bd e0 a4 9c 3d
       -0.24517664 -0.0027606785 -0.074480414 0.07648635
000190 80 92 7d bb 52 60 0a be cc 02 3c 3e 28 37 17 bd
       -0.0038692057 -0.13513306 0.18360442 -0.036917835
0001a0 c8 d2 30 3d 20 0c 61 bd bc 94 86 bd 60 f9 47 3e
       0.043169767 -0.054943204 -0.065713376 0.19528723
0001b0 50 f1 f6 3c 20 d2 22 be 30 d3 44 bd b6 c5 62 be
       0.030144364 -0.15900469 -0.048052967 -0.22145733
0001c0 e2 53 44 3e 28 3f 0a bd 52 e4 4d be be 27 75 3e
       0.19172624 -0.033751637 -0.20106629 0.23940942
0001d0 66 9b 55 3e c0 5e 9a 3c 5e 93 71 be d0 73 4a 3d
       0.20860061 0.018844008 -0.23591372 0.049426854
0001e0 68 7c c4 bd 38 0c 29 3d ec a8 42 be 18 2f 13 3d
       -0.09594041 0.04127142 -0.19009751 0.035933584
0001f0 6a 51 45 3e 82 cb 62 3e c4 af 5a 3e c8 3a fc 3d
       0.19269338 0.22147945 0.21356112 0.12315899
000200 93 40 36 3e c0 d8 5a 3c 13 85 51 be 54 5b 5b 3e
       0.1779807 0.013357341 -0.2046092 0.21421558
000210 be 02 3d be f0 07 01 be 53 34 37 3d cb ad 74 be
       -0.18458077 -0.12600684 0.044727635 -0.23894422
000220 30 29 a7 bd 8f 2c 1c 3e 6e 98 9b bc 6a 8e 54 be
       -0.08162153 0.15251373 -0.018993583 -0.20757452
000230 10 3c e3 bd af c4 fa bd 7a bb 1f be 70 0e 85 bd
       -0.110954404 -0.12244546 -0.1559886 -0.06496894
000240 2a d3 1e 3e ee aa 5a 3e 8c 31 d6 3d aa 44 66 be
       0.1551024 0.21354267 0.10458669 -0.22487131
000250 b0 0b 06 be b0 55 3c 3e 20 13 0c bd 42 0d 46 be
       -0.13090396 0.18392062 -0.034197927 -0.19340995
000260 b0 8f ac bd c0 76 9d 3d f8 9e a0 bd 80 19 79 3b
       -0.08425844 0.076886654 -0.07842821 0.0038009584
000270 04 e6 49 be 64 f7 95 bd 00 90 f4 b9 90 d2 ea bc
       -0.1971665 -0.07322577 -0.00046646595 -0.028664857
000280 a2 cf 6d 3e 02 f0 24 be 74 91 fe 3d c8 30 1c bd
       0.23223737 -0.1610718 0.12430087 -0.03813246
000290 00 16 33 3d 18 b4 f5 3d 8e 82 ae 3d 97 56 4a 3d
       0.043722153 0.11997241 0.08520995 0.049398985
0002a0 e8 78 27 be db 2c bd bd 44 56 1e be 1c 89 6b be
       -0.16354716 -0.09237071 -0.15462595 -0.23001522
0002b0 46 57 18 be 06 4b 7e 3d 10 30 5b 3e 58 36 e6 3d
       -0.14877042 0.062083267 0.21405053 0.11240834
0002c0 e8 76 0a be 00 78 28 be f1 d3 ed 3c 26 31 1b 3d
       -0.13521922 -0.16452026 0.029031726 0.03788867
0002d0 44 37 7c be 00 af 0e bc 26 2e 37 3e e3 39 5d bd
       -0.24630457 -0.008708715 0.17888698 -0.054010283
0002e0 a8 70 1b 3d 2f b0 63 3e cf df 44 3d ba 2a 2c 3e
       0.037949234 0.22235177 0.048065003 0.16813174
0002f0 80 a2 08 bb 53 ee 0e be 28 b8 f9 3d 84 63 c2 3d
       -0.002084881 -0.13958101 0.12193328 0.09491637
000300 e0 da 0b be da 71 7e be 00 33 e2 bb 3e 84 13 be
       -0.13657713 -0.24848118 -0.0069030523 -0.14405915
000310 56 e2 10 be c4 74 0f 3e a6 15 43 be c0 06 a2 3b
       -0.1414884 0.14009386 -0.19051227 0.0049446523
000320 28 c0 4f 3e 20 67 4a be 7c 1e 14 3e 2c 48 53 3e
       0.20288146 -0.19765902 0.14464754 0.20633
000330 76 74 3e be 7c 2f 59 be 12 35 54 3e 72 4f 46 3e
       -0.18599114 -0.2120952 0.2072337 0.19366243
000340 40 9f 0d 3e a0 74 6f 3e c0 c5 5a be 12 2f 38 be
       0.1383028 0.23384333 -0.21364498 -0.17986706
000350 00 42 83 ba 58 97 28 bd f0 12 88 bc 3a f6 0d 3e
       -0.0010014176 -0.041159958 -0.016610593 0.13863459
000360 c0 9b 5d bd 42 fa 26 3e 42 54 23 be 30 97 a9 3c
       -0.054103613 0.16306403 -0.1595011 0.020701975
000370 a2 50 32 be 10 8a 05 be 1e 17 35 be dc f1 08 be
       -0.17413571 -0.13040948 -0.176846 -0.13373512
000380 34 b8 b2 3d ea ae 70 be d0 29 25 bd 4b 1a 20 be
       0.0872654 -0.23504224 -0.04032308 -0.1563503
000390 54 b8 2f 3e 74 cb 9f bd f6 62 40 3e 74 6b 41 bd
       0.1716016 -0.078024775 0.1878775 -0.047221616
0003a0 c4 e4 57 3e 90 ca 6a 3e 31 09 a7 3d b0 e4 52 be
       0.21083361 0.22928834 0.0815605 -0.2059505
0003b0 40 29 1f 3e 7e 1b eb bd 0c ba b0 3d 60 6c 75 be
       0.1554308 -0.11479853 0.086292356 -0.23967123
0003c0 68 40 43 3d 2a d8 4c 3e d0 43 4e be a6 1c 41 be
       0.047668844 0.20004335 -0.20143056 -0.18858585
0003d0 06 aa 00 be d6 f4 6b 3e 52 60 30 be 10 99 8b bc
       -0.12564859 0.23042616 -0.17224243 -0.01704076
0003e0 90 4c 46 bd dc 99 2e be b2 db 27 3e 60 40 6f 3d
       -0.04841286 -0.1705088 0.16392401 0.058411002
0003f0 34 74 aa bd 30 28 f7 3c 20 ea 49 3e 88 a2 e5 bd
       -0.08322945 0.03017053 0.19718218 -0.11212641

decoder.6.bias f4 [32]
000000 2c e4 e3 3d 93 a9 f8 3d c3 f8 87 3b 74 8f e0 bd
       0.11127505 0.12141719 0.0041495278 -0.109648615
000010 d3 35 b8 3d bc c6 29 3e e8 65 c7 bd c8 df ef bd
       0.08994641 0.16579717 -0.09736234 -0.11712605
000020 f6 b6 06 be c2 16 1f be 88 53 3d be 35 a4 12 3e
       -0.13155732 -0.15536025 -0.18488896 0.14320453
000030 1a 57 40 3e 58 e4 91 3d 00 a1 48 3e 70 ea 69 be
       0.18783227 0.07123631 0.19592667 -0.22843337
000040 86 bf 74 be 40 c3 cd 3b d7 5d a4 bd c0 4c cd bd
       -0.23901185 0.006279379 -0.08025711 -0.100244045
000050 84 a5 b5 bd 09 a9 6e 3d 27 e3 d4 bd 30 41 db bd
       -0.0886946 0.058266673 -0.10394888 -0.10705793
000060 c4 0c 7d 3e 70 ee 02 3e 92 2b 20 3e 1c 35 26 be
       0.24711901 0.12786269 0.15641621 -0.16231197
000070 40 9c 94 bb e0 1d 33 be e4 66 0a be 49 4e 0f 3c
       -0.004535228 -0.17491865 -0.13515812 0.008746692

decoder.8.weight f4 [10, 32]
000000 d9 9a d1 3d 01 cd 0b bd 50 71 46 bd e2 b1 8b bc
       0.10234613 -0.034131054 -0.048447907 -0.017052595
000010 51 04 2b 3e 22 81 2c be ae 86 c6 bc 4f 31 30 3e
       0.16700865 -0.16846135 -0.024234142 0.1720631
000020 5b 82 81 bd 30 a3 13 3d b1 6f 75 bd 4f 58 1e 3e
       -0.063236915 0.0360443 -0.05992097 0.15463375
000030 af ef 3e bd 59 c2 04 3e 3f 44 e9 bd c3 a1 08 3e
       -0.0466153 0.12964763 -0.1138997 0.13342957
000040 11 52 c2 3d c4 77 ec bd 38 a6 48 3d 56 6e 1b be
       0.09488309 -0.11546281 0.048986644 -0.15178809
000050 f2 48 45 3d c6 9f 6a 3c 5a 57 3f ba a8 44 17 bd
       0.04816527 0.0143203195 -0.0007299088 -0.03693071
000060 51 1c f9 bd d1 64 e0 3d a8 34 0f 3d 05 c6 12 3e
       -0.12163604 0.10956729 0.034962326 0.14333351
000070 ae ba 1b bd a8 c8 0b 3e 04 1d 97 3d a4 af 89 3d
       -0.03801983 0.13650763 0.07378581 0.06722954
000080 e4 82 0d be 9c 12 b3 3d 26 0f 05 3e d6 45 9b bd
       -0.13819462 0.08743784 0.1299406 -0.075816795
000090 f7 31 df 3d 55 d7 d7 3d 9b ef 2b 3d f3 ca 23 3e
       0.10898202 0.10539118 0.041976552 0.15995388
0000a0 fb a8 c9 bd b5 11 fb bb ff 49 a3 bd 10 5a 14 3e
       -0.098466836 -0.007662023 -0.07973098 0.14487481
0000b0 83 57 26 be 52 14 58 bd cd 6c 7a bd a0 a2 65 3d
       -0.1624432 -0.052753754 -0.061138917 0.056063294
0000c0 3b a8 31 be 2b d7 d1 bd 5e b7 05 3d ca 68 21 3e
       -0.17349331 -0.10246118 0.032645576 0.1576263
0000d0 11 fa 8a bd 75 84 88 3d 05 70 6b 3d cb 2e 80 3d
       -0.06785978 0.06665889 0.057479877 0.06258925
0000e0 ec ff 9b 3d ac 2e 8a ba bb 2e d1 bd 9f 08 b0 3a
       0.076171726 -0.0010542474 -0.10213991 0.0013430304
0000f0 78 10 23 3d e2 1f 42 3d 2f 96 3c 3c 39 a2 11 be
       0.039810628 0.047393687 0.011510416 -0.1422204
000100 17 a5 d9 3d e3 1e 05 3e 2b d6 11 3e 49 3f 18 be
       0.106271915 0.13000064 0.14241855 -0.14867891
000110 6b 5b be 3d 7f ea 01 be e9 11 cc bd a5 1c 26 3e
       0.0929478 -0.1268711 -0.099643536 0.16221865
000120 f6 d6 00 bd 08 d5 06 be 18 93 e8 3c b6 ff ce 3c
       -0.031455003 -0.13167202 0.028390452 0.025268417
000130 31 21 17 bd b4 1d fe 3d 0f 33 9c bd 81 f6 48 bd
       -0.03689689 0.12408009 -0.07626926 -0.04906321
000140 e2 3b 31 3d 35 a4 30 3e 29 1b 22 3e c9 c8 e5 3c
       0.04327 0.1725014 0.15830673 0.028049843
000150 2d 62 b5 bd 7f 92 ce 3d 21 b7 e8 bd ff 75 08 be
       -0.08856616 0.10086536 -0.11363054 -0.13326262
000160 88 d5 6e 3c 75 66 fa 3d 14 55 06 3d 08 a5 2f bd
       0.014577277 0.122265734 0.03279598 -0.042881995
000170 2b a4 8b 3d e4 e4 d7 3d 9a 46 1d be 5a 40 a6 bc
       0.06818422 0.10541704 -0.15358964 -0.020294357
000180 6f 68 1d be ef 66 51 3c 56 b8 95 bd ad 1f 13 be
       -0.1537187 0.012780889 -0.0731055 -0.14367552
000190 e8 eb 89 bd 3c 46 c0 bb a7 7b 1b 3e 83 e9 3f bd
       -0.06734449 -0.0058677476 0.15183888 -0.046853554
0001a0 b6 68 ef bd 53 28 e8 ba 29 a1 e9 bd 52 41 c9 3d
       -0.11689894 -0.0017712213 -0.11407692 0.09826912
0001b0 0a 71 d2 bd b7 16 31 bd a1 27 c0 3d ac 6e 2b 3c
       -0.10275467 -0.043234553 0.093825586 0.010463398
0001c0 2e 94 cf bd ac e9 cf bd 36 61 2c 3e f0 87 0f be
       -0.10135685 -0.10151991 0.16833958 -0.140167
0001d0 c5 c7 b7 3d 83 a3 28 be 3e e9 12 3e a4 48 24 3e
       0.0897365 -0.16468625 0.14346787 0.16043335
0001e0 c0 0c 08 be c8 99 c3 bd 77 e6 a1 bd 3c fa 21 be
       -0.13286114 -0.09550816 -0.07905286 -0.15818113
0001f0 a9 58 b4 bd 46 56 2c be 03 47 34 3e 92 0e 68 bd
       -0.08805973 -0.16829786 0.17605214 -0.05665452
000200 c7 66 7f 3d e7 71 23 3e d7 68 da 3d 24 f0 e2 3d
       0.062353875 0.15961419 0.10664528 0.110809594
000210 39 ba 5e 3d 82 13 be 3d 5f cc 21 3d 9f 14 34 be
       0.054376815 0.092810646 0.039501544 -0.17585991
000220 8d 34 2e 3e 77 e2 b4 3d 63 04 f3 bc cd 9f 14 3e
       0.17012234 0.08832257 -0.029665178 0.14514084
000230 41 0f a7 3d 00 cc 28 3e 89 98 76 bb da 64 bd bd
       0.08157206 0.1648407 -0.003762754 -0.092477515
000240 8a 28 a4 3d 48 3e e1 3d 18 be b3 bd 9c c7 17 3e
       0.08015545 0.10998207 -0.08776492 0.14822239
000250 76 b0 de 3d 45 d7 9c bd 26 9e 18 be 07 48 cc 3c
       0.10873501 -0.07658247 -0.14904079 0.024936689
000260 82 de 07 3e 35 f8 34 3e 1c b9 1d be 28 92 8c 3d
       0.13268474 0.17672808 -0.15402645 0.068638146
000270 9e c3 e5 3c 12 fc 83 3d ec 2e ad bd 0f 0f 8d bc
       0.02804738 0.06444563 -0.08456215 -0.017219095
000280 8a 06 2b 3e 31 8e 7f bd ef 02 84 3d 70 a8 5c 3d
       0.16701713 -0.062391464 0.06445872 0.053871572
000290 2a 4e a2 3d 07 4b e4 bd 81 bb 0c 3e 2d a1 9e 3d
       0.07925065 -0.11147123 0.13743402 0.077455856
0002a0 65 b8 42 bd 2c d8 98 bd ee 5e 26 bd 10 df ca 3d
       -0.047539134 -0.074631065 -0.040617876 0.09905827
0002b0 ef e0 12 be fc 71 cf 3d e3 4a 25 3e c4 0f 48 bd
       -0.14343618 0.10129163 0.16141848 -0.04884316
0002c0 ce 00 b7 bd 25 b8 9a 3c 32 3b 97 3d 93 35 ca bd
       -0.089357 0.018886635 0.073843375 -0.098735
0002d0 ce 9c 06 bd 14 3d 3e bd af 77 0f 3e 59 c4 b8 3d
       -0.032864384 -0.046444967 0.140105 0.09021825
0002e0 2f e9 1a 3d e1 14 da bd be 90 12 3d b5 4f b2 bd
       0.037820037 -0.106485136 0.03578257 -0.08706609
0002f0 4d 6e 31 3e aa a1 28 3c fd 47 f1 bd 62 af 30 bd
       0.17327233 0.01029245 -0.11781309 -0.043136008
000300 b9 5d 08 3e 57 e3 23 3e 2f 5f 86 3d c8 74 c9 3d
       0.13317002 0.16004692 0.065611236 0.098367274
000310 f2 00 87 3b ba d0 d7 3b 7a de 93 3c 6e d6 25 be
       0.0041199857 0.0065861614 0.018050421 -0.1619508
000320 4b 4f d6 3d 5c 7a fb bb 38 5f e8 3d 9a b8 83 bd
       0.10464343 -0.0076744985 0.113462865 -0.06431694
000330 b2 67 f5 bc be b8 8d bd 42 75 1b 3d 7c 78 1c be
       -0.029956672 -0.069200024 0.037953623 -0.15280336
000340 92 96 d0 bd 20 ff 54 bb f4 52 18 be 92 d0 13 be
       -0.10184969 -0.00325007 -0.14875394 -0.14435032
000350 39 d7 f7 3d 17 ec 87 bd 19 4d f5 3c 3e a4 24 3e
       0.12101597 -0.066368274 0.02994399 0.16078278
000360 e3 7f 09 3e 25 c0 bb 3b a5 a4 0b 3d 24 18 f2 bc
       0.13427691 0.0057296925 0.034092564 -0.029552527
000370 80 49 11 be 86 9f 19 be 58 6a dd 3d e7 31 51 bd
       -0.14188194 -0.1500226 0.10811299 -0.05107298
000380 96 04 23 3e 24 bb 8c 3d 60 e1 28 3d 11 59 9f 3d
       0.15919718 0.06871632 0.04123056 0.0778066
000390 47 b6 c5 bc f9 66 bb bd 9d bb 2f bd dd f6 f7 3d
       -0.024134768 -0.091505 -0.04290353 0.12107632
0003a0 9d d0 83 bc a0 dd f6 bd e7 aa ed 3d ac 5c e2 3d
       -0.016090686 -0.1205399 0.11604863 0.11052832
0003b0 45 07 c8 bd 2b 65 92 3d 29 dc ac 3d a2 bb de 3d
       -0.097670116 0.071482025 0.0844043 0.10875632
0003c0 76 23 4b bd d0 cb f6 bc e6 22 f0 3d 9c a3 ce bd
       -0.049594365 -0.030126482 0.11725406 -0.100898
0003d0 61 5c 1a 3e ce 54 0b 3e b8 59 7f 3c 06 1d 87 bd
       0.15074302 0.13606569 0.015585355 -0.06597333
0003e0 14 85 8b bd 04 22 2e 3d 17 3a 1c bd e1 e1 4e 3d
       -0.06812492 0.04251291 -0.038141336 0.050508384
0003f0 32 a7 5d bb bf 5c 9f 3c 1e cd e5 bd 05 1c 00 3d
       -0.003382158 0.019453404 -0.112207636 0.03127672

decoder.8.bias f4 [10]
000000 85 05 f2 bd d1 49 f9 3d 7f 1c de bd c7 c7 ce 3d
       -0.11817459 0.121722825 -0.10845279 0.10096698
000010 17 43 e3 bd aa 70 5c 3c 07 cc 2c 3e f7 23 19 3d
       -0.11096781 0.013454596 0.16874705 0.037387814
000020 a0 d9 c7 bb d9 7a 33 be
       -0.006098941 -0.17527331
