src/global_model_training_and_inference/cpu_usage_model.pt (torch, 2327 bytes, 5 tensors)

lstm.weight_ih_l0 f4 [12, 1]
000000 25 8e d0 bd 29 f9 0b 40 eb e5 58 3f 1a 50 53 3e
       -0.10183362 2.1870825 0.84725827 0.20636025
000010 4f de e3 3f 7b a5 3e 40 06 a9 f3 be 4d 25 8b 3e
       1.7802218 2.9788501 -0.47589892 0.27176896
000020 db 67 da bf fb 07 ae bd 95 bf 81 3f b7 e1 ac 3f
       -1.7062944 -0.08497616 1.0136591 1.3506383

lstm.weight_hh_l0 f4 [12, 3]
000000 08 b1 47 3d bd 75 00 3f d8 78 66 3d 60 25 a7 bf
       0.048752815 0.50179654 0.05626759 -1.3058281
000010 06 e4 95 bf d9 b2 b3 bf d8 de 19 bf 37 37 b0 bf
       -1.1710212 -1.4038955 -0.6010566 -1.376685
000020 b5 0d a9 c0 d7 e5 b0 be b6 eb 44 bb 42 f2 b0 3e
       -5.282923 -0.34550354 -0.0030047721 0.34559828
000030 f3 40 c8 bd ce 3b a0 3d 07 8a f4 be 36 b2 8f bf
       -0.09778013 0.07823907 -0.47761557 -1.1226261
000040 34 3c 45 3f c6 6a b0 bd f4 29 f6 3e 56 ee c7 3e
       0.7704499 -0.086141154 0.48078883 0.39049023
000050 34 f7 4d 3f d9 d8 03 bf 7f 3d 61 3c 75 f1 45 40
       0.8045533 -0.5150276 0.013747572 3.0928624
000060 83 c8 68 3f 47 ef 4a be 4a ff 93 3d 27 20 9e be
       0.90930957 -0.1981784 0.07226427 -0.30883905
000070 76 f3 63 be a5 8e c3 3e 7c fe b3 be ff 7f a7 bf
       -0.22260842 0.38194767 -0.35155094 -1.3085936
000080 6a bf 68 c0 67 f4 11 3f c7 48 1d c0 35 88 3c c0
       -3.636683 0.57013553 -2.457567 -2.9458134

lstm.bias_ih_l0 f4 [12]
000000 fb c3 44 3f bb 32 ad bf 7e 07 7e bf ce 41 81 be
       0.7686154 -1.3531107 -0.9923018 -0.25245517
000010 fe d4 3c bf ad 8d e9 be e7 3f 83 3f 46 9e 6f 3e
       -0.737625 -0.45615903 1.0253876 0.2340022
000020 82 33 3e 3d 86 67 3c 3e fa 95 29 bf 82 26 e5 be
       0.04643584 0.18398866 -0.6624447 -0.44755942

lstm.bias_hh_l0 f4 [12]
000000 43 15 98 bd 66 01 16 bf 69 f4 04 bf 67 25 a5 be
       -0.0742593 -0.58595884 -0.5193544 -0.32255098
000010 ac 0e 4f bf bf cc 84 bf 78 38 07 3f 65 94 fb 3d
       -0.8088176 -1.0374984 0.5282054 0.122841634
000020 0e 5d f9 3e 84 5e f4 3e 34 fc 46 bf f8 44 dc bd
       0.48703808 0.4772836 -0.7772858 -0.10755342

fc.weight f4 [1, 3]
000000 4b be d2 3e 06 02 aa be 86 b0 6a be
       0.41160807 -0.3320467 -0.22918901
