src/anomaly_detection_model.pth (torch, 15049 bytes, 20 tensors)

encoder.0.weight f4 [32, 10]
000000 9f af f1 bc e8 d6 70 3e b6 f5 91 bc ae 9a a2 bd
       -0.029502688 0.2351948 -0.01781736 -0.07939659
000010 09 24 99 be a1 2b c6 3c bf 18 ab 3d 3f df 3c 3e
       -0.29910305 0.024190726 0.08354329 0.18444537
000020 6a 54 11 be 4e 38 f7 3d d8 6e 6c be 3b 64 d2 bc
       -0.14192358 0.12071286 -0.23089159 -0.02568256
000030 65 dc 35 bd cf bb 98 be c4 38 d5 bd c9 aa 68 3e
       -0.044399638 -0.29830787 -0.10411218 0.227214
000040 47 ab 2b bc df 53 ed 3d 10 22 95 3e bd 0a a1 be
       -0.010477847 0.11588263 0.2912755 -0.31453505
000050 a7 8e 9f be 23 da a1 3d 0c 4a 76 bd e4 0e 97 be
       -0.31163523 0.079029344 -0.06012921 -0.29503548
000060 f6 dc 5c 3e 00 5b 45 be 28 4b 0e 3e ea 8a d6 3c
       0.21568665 -0.19272995 0.13895857 0.026189286
000070 7b 26 a1 3d 23 11 4e 3e 7f 6f 84 3e 62 7a 28 be
       0.07868668 0.20123725 0.25866315 -0.16452935
000080 1b 72 6f bd 2b 00 e3 bd 11 e3 1a 3e 82 a6 20 be
       -0.05845843 -0.110840164 0.15125681 -0.15688518
000090 ec d4 04 bc f9 9d 3a be f2 fd 67 bc 14 3f f3 bd
       -0.008107405 -0.18224324 -0.014159666 -0.118772656
0000a0 fb aa d8 3d 7a c8 54 be 23 17 fd 3d 8f 15 4c 3e
       0.10579487 -0.207796 0.123579286 0.19930099
0000b0 a7 c6 4d 3e cb 2e dd bb 8c fb 0d be d8 b3 e6 3d
       0.20095311 -0.006749963 -0.13865489 0.11264771
0000c0 07 90 d2 3c c7 c3 f0 3d 90 c8 72 be 53 49 eb bc
       0.025703443 0.117560916 -0.23709321 -0.028721487
0000d0 49 0d 80 be 37 00 41 bd 12 cb 10 be 16 12 9d be
       -0.25010136 -0.047119346 -0.14139965 -0.3067786
0000e0 bd 11 8f 3e a3 05 10 3e d4 9c 97 be 83 4e 8c be
       0.2794322 0.1406465 -0.29611838 -0.2740365
0000f0 0a 6e b0 bd 94 48 95 3e 26 a7 f2 3b 1d ac bc bd
       -0.08614738 0.29156935 0.0074051796 -0.092125155
000100 f6 04 21 3e f9 1c b7 3b ab f7 8d 3e e6 7b 5f be
       0.15724549 0.0055881706 0.27728018 -0.21824607
000110 81 d7 8c be 87 71 53 3e 49 4a 23 3e f9 02 9c be
       -0.27508166 0.20648776 0.15946306 -0.30471018
000120 0e 75 2e be 53 1b 9a 3e 91 ad 87 bd fa e4 8f 3d
       -0.1703684 0.30098972 -0.06624902 0.07026096
000130 4b 91 12 be 94 00 6a 3e 46 db 21 be ae 52 00 3e
       -0.14313237 0.22851783 -0.15806302 0.1253154
000140 2a 68 84 3e a7 2b ad bc 3b c4 86 3e c3 a5 83 be
       0.2586072 -0.02113898 0.26321587 -0.25712404
000150 78 f8 da bd e0 60 b6 3d 16 a1 d9 bc 74 c0 9c bd
       -0.10691923 0.08905196 -0.02656607 -0.07653895
000160 0e 59 6c be e0 aa a0 3e af 95 87 3e d3 4e 8d 3e
       -0.23080847 0.31380367 0.26481387 0.275992
000170 06 02 44 be ba 57 72 be 4f 30 03 be f2 58 79 3c
       -0.19141397 -0.23666278 -0.12811397 0.01521896
000180 f5 95 35 3c 6b 35 6f 3e 74 f6 4b be 7f 80 63 3e
       0.011083116 0.23360221 -0.19918233 0.22216986
000190 e1 a1 70 3d 55 8d 49 3e 3c 24 8f 3c 81 85 47 bd
       0.05874813 0.1968282 0.017473333 -0.048711304
0001a0 86 96 b4 3c 18 af 4b be 88 05 1d 3e 54 45 57 3c
       0.022044431 -0.19891012 0.15334141 0.013139088
0001b0 85 4f cc 3d 81 a5 51 3d 75 2f 7f be e1 e1 08 be
       0.09976105 0.051183227 -0.24920447 -0.13367416
0001c0 8f fb 34 3d 08 42 6e 3e 66 44 9d 3d 93 93 4d bc
       0.044185217 0.23267376 0.076790616 -0.0125473915
0001d0 56 6c 96 3e 7d 74 5c be 23 d0 04 3e 39 03 eb bd
       0.2937953 -0.21528812 0.12970023 -0.11475224
0001e0 a5 fa a0 3e aa 1a 20 be 60 a0 bc bd df 2c ec 3d
       0.31441227 -0.15635172 -0.092102766 0.11531996
0001f0 fc 55 9e be 7d 07 07 ba 55 cd 91 3d d9 65 6a be
       -0.30924976 -0.0005150957 0.07119242 -0.22890414
000200 3d ca 85 be 17 fa f7 3a 10 f0 7c bc 38 89 8c 3e
       -0.26130858 0.0018919137 -0.015438095 0.2744844
000210 59 ba 9d be f4 e9 4d be 4b dd 2b 3e 90 cd 67 bc
       -0.30806234 -0.20108777 0.16783635 -0.014148131
000220 9b f0 54 3d 25 f4 00 3e b5 99 60 3e 50 95 33 3e
       0.05198727 0.12593134 0.21933635 0.17537427
000230 9f 79 91 be fe 71 86 bd cd a8 4d 3d 4f 6a 97 3d
       -0.28413102 -0.06564711 0.05020981 0.07393324
000240 3b 49 72 be 46 d4 a5 3d 7b 4a 3c be 11 92 37 3e
       -0.23660748 0.080971286 -0.18387787 0.17926814
000250 21 69 89 be 95 4d 91 3e 1e 96 24 be 5c 18 8c be
       -0.2683802 0.28379503 -0.1607289 -0.27362335
000260 47 37 a7 3c 0a 14 88 3e 87 fa 47 be 35 70 7c be
       0.0204121 0.2657779 -0.19529162 -0.24652179
000270 4b 3c 62 be 7b 42 9a 3e f2 26 2c 3e 03 a2 99 3e
       -0.22093312 0.30128846 0.16811731 0.30006418
000280 f6 8e 15 3c ad 25 6c 3e e1 3e 7b be e8 49 12 bc
       0.009128323 0.23061247 -0.24535705 -0.008928753
000290 60 15 80 3e c8 e5 ab bc 6c d4 2a 3e 9b c0 92 3e
       0.25016308 -0.020983592 0.16682595 0.2866257
0002a0 c6 d3 8c be 08 35 6d 3e a7 9c 9b be c2 cc 39 be
       -0.2750532 0.23164761 -0.30392954 -0.18144515
0002b0 89 ff 28 3e aa 8e 1f bd ca 18 5a be 4e 5a 80 be
       0.16503729 -0.038954414 -0.21298519 -0.25068897
0002c0 b2 8f 36 3d bb f0 45 be cb bf 50 be 76 d5 59 bd
       0.044570632 -0.19330113 -0.20385663 -0.053182088
0002d0 be eb 6c be 24 04 7b be e2 4e 97 be f0 1a 7b be
       -0.23136804 -0.24513298 -0.2955237 -0.24521995
0002e0 37 76 85 bd ab 01 79 be 5e 52 7e be 6d d8 57 be
       -0.06516688 -0.24317043 -0.24836108 -0.21078654
0002f0 e7 27 07 bc e7 8f 34 3e f8 fc 0a 3e e1 a6 7e be
       -0.00824926 0.1763302 0.13573062 -0.24868347
000300 47 6b 3c 3e c6 50 67 3e ee 1c 74 bc 17 a4 0f 3e
       0.18400298 0.22589406 -0.0148994755 0.14027439
000310 88 17 dd bd 60 20 8c be 5b c0 9c 3b 99 ef 6f 3e
       -0.10795504 -0.2736845 0.0047836727 0.23431243
000320 a2 24 29 bd cc 65 40 3e 40 cd 82 3e a7 38 59 3c
       -0.0412947 0.18788832 0.25547218 0.013258136
000330 59 6f 52 be 82 d6 02 3e e2 20 b0 bd 96 b6 28 bd
       -0.20550288 0.1277714 -0.08600022 -0.041189753
000340 e3 7e 1e be 97 86 b7 3b d7 cd 62 3e d5 1e 5b be
       -0.15478091 0.005600761 0.22148834 -0.2139848
000350 6e ec 17 be 80 b6 1f be 85 96 96 3e d0 9a 87 bd
       -0.14836285 -0.15596962 0.29411712 -0.06621325
000360 40 2f b0 3b 1f c4 07 3e 2c 9f 53 3e 7f d2 d9 3c
       0.0053767264 0.13258408 0.20666188 0.02658963
000370 5b ea 8c bd ef 7b cd 3c 8b 4d 76 be 9d ab de bc
       -0.06880637 0.02508351 -0.24053018 -0.027181441
000380 f4 e4 06 3e 18 b5 8a be db f3 98 bd f3 ed 61 3e
       0.13173276 -0.2709129 -0.07468387 0.22063427
000390 3d 44 dd bd 44 8d a9 3c 83 c9 1d 3c 49 50 3b be
       -0.10804031 0.020697244 0.009630564 -0.18292345
0003a0 7e bc 8c be 11 46 f5 bd 1f e1 42 bd a8 a3 d6 bd
       -0.27487558 -0.11976255 -0.047577973 -0.10480434
0003b0 ab 0d 8c 3e 9a ae 9b 3e 1c a1 09 bd a0 ca 91 bc
       0.27354178 0.30406648 -0.03360091 -0.017796814
0003c0 9e 33 70 be 20 a5 e4 3d 99 e2 90 3e 44 eb 63 3e
       -0.2345719 0.111643076 0.2829788 0.22257715
0003d0 26 c6 09 bd ff d6 ab 3d e1 36 42 3e 84 b5 eb bd
       -0.033636235 0.083906166 0.18966247 -0.11509231
0003e0 fa 47 00 be a4 5f 81 bc 85 de 4d bd 74 ee e1 bd
       -0.12527457 -0.015792675 -0.05026104 -0.110318094
0003f0 a2 3a c0 3d 67 c7 9f 3e 84 b6 1b 3e 7c 7b ee bd
       0.09386183 0.3120682 0.15206343 -0.116446465

encoder.0.bias f4 [32]
000000 84 7c a1 3d 10 84 14 3c f8 81 21 3e 6d 13 c7 3c
       0.078850776 0.009064689 0.15772235 0.024301255
000010 a8 4c 86 bd 78 88 9d 3d 2d aa 08 3d 16 87 57 3e
       -0.0655759 0.07692045 0.033365417 0.21047625
000020 11 b1 6e 3e 9a ea a4 3d 12 d5 53 be bc 3a a0 3d
       0.23309733 0.08052559 -0.20686749 0.07823703
000030 ad 94 76 3d 8f e5 49 3e a4 6e 16 be fb 1e 63 3e
       0.060200382 0.19716476 -0.14690644 0.22179787
000040 da 40 b5 3d 1f 36 59 3d 77 41 fc bd a5 e5 35 3c
       0.0885026 0.05303013 -0.12317174 0.011102115
000050 d3 0b 8b bd 64 e6 8f 3e 36 b7 d1 3d 62 3f 91 3e
       -0.06789365 0.28105462 0.10240023 0.2836867
000060 c2 59 3c be 3a 67 41 bd 30 3a 13 be ae a3 8e be
       -0.18393615 -0.047217585 -0.14377666 -0.27859253
000070 2a 2c 96 be 37 4b 83 3e 25 f7 d3 3d 74 fd 7c be
       -0.2933057 0.25643322 0.103498735 -0.2470606

encoder.2.weight f4 [16, 32]
000000 27 00 18 bd e9 cb 23 3e 5a b0 a9 bc 8f 50 0e 3e
       -0.03710952 0.15995754 -0.020713974 0.13897918
000010 dc ed 96 bc bd f3 cf 3d e9 61 f0 3d b7 84 b5 3c
       -0.018423967 0.10153911 0.11737425 0.02215801
000020 95 ab c8 3d 7b f4 20 bd a8 7c 2c 3e 3b 8b 28 be
       0.09798352 -0.039295655 0.16844428 -0.16459362
000030 87 ab ff bd 48 89 e7 3d 69 da 28 bc 58 64 f8 3b
       -0.12483888 0.11305481 -0.010305979 0.0075803213
000040 2e 81 b9 bd 20 15 df bd 82 aa 7f bb 3e f8 d4 bd
       -0.09057842 -0.10892701 -0.0039011543 -0.10398911
000050 9e 91 81 bd 29 09 15 3d 73 b0 1b 3e e6 2b 2e be
       -0.063266024 0.03638569 0.15204029 -0.17008933
000060 fe 90 d6 bd 5f bd 8b bc 2a 76 48 bd 88 11 b3 bd
       -0.10476874 -0.017058073 -0.048940815 -0.08743578
000070 39 3c e4 bd 7b 09 0d be f2 f6 32 be ad 6c f6 3d
       -0.11144299 -0.13773148 -0.17477015 0.12032447
000080 ea c1 04 3e 8a 1d f7 bd eb 7d 8d 3d 5a bd bd bd
       0.12964597 -0.12066181 0.069087826 -0.092646316
000090 7f 28 ae bd 7d 0a 9d 3d 29 68 9f 3d 75 12 49 3c
       -0.08503818 0.07668016 0.07783539 0.012272467
0000a0 dc 1d 23 bd db ad 16 be 24 aa c9 bd a0 9f 2a be
       -0.039823398 -0.14714758 -0.09846905 -0.16662455
0000b0 49 c6 44 b9 63 3e 98 bd b7 7a ec bd 43 ac b0 3d
       -0.00018765884 -0.07433774 -0.115468435 0.08626606
0000c0 50 98 b3 bd d1 e5 81 bc 30 37 e5 bd 9c bb 20 be
       -0.08769286 -0.015856655 -0.11192167 -0.15696567
0000d0 c5 ab 17 3e 36 30 10 3e 26 90 19 3e c2 03 b5 bd
       0.14811619 0.14080891 0.14996395 -0.08838607
0000e0 59 a8 54 3d e7 51 0a 3e 43 a6 7c bc 00 9f a2 3d
       0.05191836 0.13507806 -0.015420499 0.07940483
0000f0 62 8b 25 bb ef f8 f0 bd f4 34 9e 3d f0 da 0a 3e
       -0.002526008 -0.1176623 0.07724944 0.1356008
000100 8a b2 88 3c 04 1a d7 bd ca 87 82 3c a3 e1 9b 3d
       0.016686697 -0.10503009 0.01593389 0.07611396
000110 db 86 e4 bd e4 f2 93 3d 73 a3 29 bd b9 ae ac bc
       -0.11158534 0.07224062 -0.041415643 -0.021079408
000120 20 11 a6 bd 72 32 5b bd fa fb fa bd 9a d5 a4 3d
       -0.08108735 -0.053514905 -0.12255092 0.08048554
000130 36 39 6b bc 6a 00 a1 bc 2a 40 f1 3c fc 92 08 3d
       -0.014356902 -0.019653518 0.029449541 0.0333433
000140 38 d2 b1 3d cf 74 84 3d af ed 9c 3d 94 ce 4b 3c
       0.08682674 0.06467592 0.07662522 0.012439389
000150 bf dc d7 3c 1d 50 b7 3c 87 e5 a5 bd 95 a2 d8 bd
       0.026350377 0.022377068 -0.081004195 -0.10577885
000160 14 09 05 be 2e b4 a8 3c e5 fb 1a 3d 54 14 24 3e
       -0.12991744 0.020593729 0.03783788 0.1602338
000170 37 6d 91 bc 43 89 0f be dd 7d b7 bd 6c 5e bd bd
       -0.017752273 -0.14017205 -0.089595534 -0.09246525
000180 c4 d8 10 bd dc be d7 3d 4a c5 ba 3d fc ae c6 bd
       -0.035362974 0.105344504 0.09119661 -0.09701344
000190 a0 81 33 be 46 4d 33 3e 34 ee 18 be f1 45 84 3d
       -0.17529917 0.17509946 -0.14934617 0.06458653
0001a0 52 07 be bd 44 c3 a1 bd fb be 0b 3e 7c cc e8 bd
       -0.0927874 -0.07898572 0.13647072 -0.11367127
0001b0 6e 2d df 3c 1b fc 20 be e6 38 46 bd aa e7 af bd
       0.027243342 -0.1572117 -0.048394106 -0.08589108
0001c0 27 b0 5c 3c ff 07 2e 3e 45 dd fa 3d 82 94 b0 3d
       0.013469732 0.16995238 0.12249235 0.086220756
0001d0 94 eb 27 3e 57 d6 c0 3d 01 ea 90 bd 57 76 24 3e
       0.1639846 0.09415882 -0.07075883 0.16060768
0001e0 31 28 28 be a7 a9 b7 3a 14 6b c9 3d ee 1e 21 be
       -0.16421582 0.0014012352 0.09834877 -0.15734455
0001f0 4d 23 37 bd 47 e2 6f 3d 74 8e c3 bb aa 3e 17 3e
       -0.0447114 0.058565404 -0.0059679095 0.14769998
000200 d0 85 15 be da f1 ec 3d 35 64 a9 bb 58 dd fd bd
       -0.14601827 0.11569567 -0.0051694163 -0.123957336
000210 56 75 9e 3d 1c e7 e4 bd 38 b9 23 be 4b 33 49 bd
       0.07737224 -0.11176893 -0.15988624 -0.049121182
000220 1a 5a 11 bd cb 9e 02 bd 08 a8 e0 3d 92 69 d4 3b
       -0.03548632 -0.031889718 0.109695494 0.0064823115
000230 7a 47 36 bd 97 12 90 3d 8a 53 20 3e 8c 2a ea bd
       -0.04450176 0.07034796 0.15656868 -0.114338964
000240 74 4b 16 be ca b3 38 3c dd 4d 88 bc 13 56 90 3d
       -0.1467722 0.011273334 -0.01663869 0.07047667
000250 f7 17 01 3e ba 96 f6 bd 24 6f 17 be b1 e4 51 bd
       0.12606798 -0.120404676 -0.1478849 -0.051243488
000260 16 ac c9 3d ef 0d fa 3c 59 24 89 bd 44 6b f7 bb
       0.09847276 0.030524222 -0.06696386 -0.007550629
000270 b3 08 08 3e 56 c8 d4 bd 16 f7 57 3c 03 3c a5 3c
       0.13284568 -0.103897735 0.0131814685 0.020170217
000280 a8 ef 00 bc 7d 0a 28 be e3 d4 5e bd b1 dd ae bc
       -0.0078696385 -0.16410251 -0.054402243 -0.021345945
000290 f4 e3 b1 bd 4c 8d bc 3d f9 89 1f be 64 f6 ea bc
       -0.08686057 0.09206638 -0.15579976 -0.028681941
0002a0 13 5b 15 bd 0f 38 17 3e f3 2f ec 3d 60 83 7b 3b
       -0.03646381 0.14767478 0.11532583 0.0038377866
0002b0 4f c1 c5 bb 72 25 91 bd 49 02 1f 3e ea 80 07 3d
       -0.006035007 -0.0708722 0.15528215 0.033081926
0002c0 e4 55 06 3e cb 02 09 be 9c 30 cf bd 93 32 27 3e
       0.13118702 -0.13379972 -0.101166934 0.16327886
0002d0 dd e3 a9 3d 6e 23 bc bd b5 8a 0b 3e b9 62 84 3d
       0.082954146 -0.09186445 0.13627131 0.06464142
0002e0 05 4c 4d 3d 80 69 14 be c8 84 0d be dd c4 4e bd
       0.050121326 -0.1449337 -0.13820183 -0.050480712
0002f0 26 39 33 3e 0b cc a0 bc 5f fd 51 bd b3 7e 88 3d
       0.17502269 -0.019628545 -0.051267024 0.06664791
000300 1f 33 e1 3a 98 3f 16 3e bd 9b 1c 3d ea 7a 24 be
       0.0017181373 0.14672697 0.03823446 -0.16062513
000310 a6 0d 19 3e 87 ba 1e be 60 44 25 be ea b9 b9 3d
       0.14946613 -0.15500842 -0.16139364 0.090686634
000320 be 2c cf bd 34 6d 20 bc 45 5e 06 bc a5 76 31 be
       -0.10115956 -0.009791661 -0.008201187 -0.17330416
000330 04 67 24 3d 07 02 b8 bd bd f5 9c 3d 93 04 70 bc
       0.040137306 -0.08984762 0.07664058 -0.014649528
000340 e4 7d ac 3d 24 77 09 3e e9 50 11 3d 68 9e 9b 3d
       0.08422449 0.13424355 0.035477553 0.07598573
000350 df f1 e0 bd 73 af 33 be eb c6 15 3e c0 c8 db bc
       -0.10983633 -0.17547397 0.14626662 -0.026829123
000360 7d 7e 22 be d8 c5 08 3e cf f0 90 bc c0 42 be bb
       -0.15868564 0.13356721 -0.017692951 -0.005806297
000370 47 13 c0 3d 53 da ba bd 7d 64 00 bd 07 50 a8 3d
       0.09378677 -0.09123673 -0.031345833 0.08218389
000380 69 fc a1 bc 98 a9 a2 3d 8c cb 25 be 7b 3e 04 bd
       -0.019773679 0.07942504 -0.16190928 -0.03228615
000390 a6 13 21 3e c6 1d 14 be 67 39 94 3d fa e0 f9 3d
       0.15730152 -0.14464483 0.07237511 0.12201114
0003a0 56 1e 16 3e d3 9f 9a 3d 13 48 cd bd 7e ed 0d 3e
       0.1466001 0.07550015 -0.10023513 0.13860127
0003b0 31 25 41 bd b4 3d db 3d 8c a3 38 3d e4 f3 b4 bc
       -0.04715461 0.10705128 0.045077845 -0.022088952
0003c0 c1 fa 25 3d 8c 54 86 bd 5b 60 d0 bc 18 6d 78 3d
       0.04052234 -0.06559095 -0.02543657 0.060650915
0003d0 fe 79 8c 3c 33 b7 16 3e 16 4c 4d bd 43 0f 33 be
       0.017148014 0.14718322 -0.05012139 -0.1748629
0003e0 1f 33 e3 3d 3d 9a 4e bd ac 8b 8e 3d ef 79 39 3d
       0.11093735 -0.05044006 0.06960234 0.0452823
0003f0 1d e9 11 3e 68 33 2a 3e 19 cf 1f be 1d 2d 88 3d
       0.14249082 0.16621172 -0.15606345 0.0664923

encoder.2.bias f4 [16]
000000 0b 03 09 3e 37 ad 10 be 74 92 ba 3c b6 1e 90 bc
       0.13380067 -0.14128576 0.022774912 -0.01759277
000010 94 66 06 3d 40 d9 99 3d 9b 7d 27 be a9 bb dd bc
       0.03281267 0.0751214 -0.16356508 -0.027067022
000020 75 08 ed 3d d2 50 0c 3e cc 89 31 3d ec 51 a7 3d
       0.11573879 0.13702706 0.043344304 0.08169922
000030 5a 0f 0c 3d 61 f2 21 bd 4d e6 9d 3d a7 39 0f bd
       0.034194328 -0.03953779 0.07709942 -0.03496709

encoder.4.weight f4 [8, 16]
000000 58 44 5d be d0 8e 5a 3e 6e cc 50 3e d0 b8 f5 3d
       -0.21608102 0.21343541 0.20390484 0.11998141
000010 3e 3a 16 be c0 5a fc 3d 20 5e 62 3e 44 12 2d 3e
       -0.14670655 0.12321997 0.22106218 0.16901499
000020 ca 97 46 be da 75 11 3e 90 6b e1 3d 10 81 10 3e
       -0.1939384 0.14205113 0.11006844 0.14111733
000030 24 7a da bd 92 35 5c be 4c 24 66 be 2c 66 e9 3d
       -0.10667828 -0.2150481 -0.22474784 0.11396441
000040 50 43 66 3e 9a c5 30 be 58 38 dd 3d 50 e8 46 3d
       0.22486615 -0.17262879 0.10801762 0.048561394
000050 f0 f8 ca 3d 88 3f 39 bd 86 cd 14 3e 68 b6 2e bd
       0.09910762 -0.045226604 0.14531526 -0.042654425
000060 f8 45 aa 3d ea 04 4f be 3e 07 5e be a2 a6 2e be
       0.08314127 -0.20216718 -0.2168245 -0.17055753
000070 40 75 99 3d c0 eb fc 3c 6e f6 54 be 20 26 0f bd
       0.07493067 0.030874133 -0.2079713 -0.03494847
000080 28 82 0b be c0 b5 f8 bc c0 25 ae bb f0 84 84 bd
       -0.1362387 -0.030360103 -0.0053145587 -0.06470668
000090 38 ac 8c 3d f0 1b 46 3e ec b7 04 3e 84 6e be bd
       0.068687856 0.19346595 0.12960786 -0.09298423
0000a0 2c a3 6c 3e 50 15 16 be 26 81 75 3e 80 ef 51 3c
       0.2310912 -0.14656568 0.23975047 0.012813449
0000b0 e4 5d 88 3d 72 f6 53 be 14 f4 98 bd 80 b4 25 bd
       0.06658533 -0.2069948 -0.07468429 -0.04045534
0000c0 c4 29 21 3e 38 ee 65 bd 38 b6 75 bd 3c a6 f2 3d
       0.15738589 -0.056135386 -0.05998823 0.11848113
0000d0 40 2b 13 3d d8 be 5d be 76 42 56 3e b4 e9 0a 3e
       0.03592992 -0.21654832 0.2092379 0.13565713
0000e0 d8 06 0b be 48 18 78 bd ec 2c 84 3d 8a 01 38 be
       -0.1357683 -0.06057003 0.06453881 -0.17969337
0000f0 fc e5 de 3d f2 ff 6f be 78 63 5f 3d 20 87 6b 3d
       0.1088371 -0.23437479 0.05453822 0.057501912
000100 7a 31 14 be b4 78 2b 3e 22 69 5a be 28 9c 3e bd
       -0.14471999 0.16745263 -0.21329167 -0.04653564
000110 8a 05 2c be ac 75 2e be d0 e4 71 3d a2 c4 01 be
       -0.16798988 -0.17037076 0.059056103 -0.12672666
000120 68 10 0c be fa 7f 5e 3e be 49 2a 3e 0e e9 0d 3e
       -0.13678133 0.21728507 0.16629693 0.13858435
000130 2a a2 6e 3e bc ad 2c 3e 34 ba 18 3e 28 a0 bb 3d
       0.23304048 0.1686315 0.14914781 0.09161407
000140 5e 6b 4b be e4 ac 55 3e 80 d8 4e bc 32 c7 21 be
       -0.19865176 0.20866734 -0.01262486 -0.15798643
000150 3c 9e 33 be 6e 95 66 3e 50 4c c5 3d 4c 7c e1 3d
       -0.1754083 0.2251794 0.09633696 0.11010036
000160 18 e2 1f 3d 00 8d 51 3c 7e 6e 54 3e b4 c4 b6 3d
       0.03903398 0.012789965 0.20745274 0.08924237
000170 0e 88 07 be 90 85 2d be 24 7b fb bd 50 e6 33 be
       -0.13235494 -0.16945481 -0.122793466 -0.17568326
000180 6c 0b 06 3e c8 8b 05 3e 10 60 cf 3d 60 9a 32 bc
       0.13090295 0.13041604 0.10125744 -0.010901064
000190 a6 0f 10 be 5a 9e 0f 3e c6 ce 3d 3e a0 9a a8 bc
       -0.1406847 0.1402525 0.18535909 -0.020581543
0001a0 90 a6 2c be 98 5f 12 bd a0 73 94 3d c0 21 e2 3d
       -0.16860414 -0.035735697 0.07248616 0.110415936
0001b0 f0 e4 82 bc 88 2f d4 3d a6 1f 3b be 18 50 85 3d
       -0.015978307 0.10360628 -0.18273792 0.06509417
0001c0 30 6e d4 bc 5c e9 f0 3d 10 ef 66 3d de 78 27 3e
       -0.025931448 0.1176326 0.05638033 0.16354701
0001d0 da 3e 42 be 84 0c 50 be 5a d6 24 3e a0 eb 58 3e
       -0.18969288 -0.20317274 0.16097394 0.21183634
0001e0 e2 69 1d be 38 1c 41 3e 68 a1 5f 3e 4c 99 bc 3d
       -0.15372422 0.18858421 0.21838915 0.092089266
0001f0 70 2b 8f bd fa 65 34 3e 4a cf 37 be 1c c6 ba 3d
       -0.06990707 0.17617026 -0.17950168 0.091198176

encoder.4.bias f4 [8]
000000 f0 1b 8e bd 1a 00 75 3e 06 26 6d 3e 78 d6 6f 3e
       -0.069389224 0.2392582 0.23159036 0.23421657
000010 40 8c c3 3d 9c 43 af bd 38 79 3b 3e a8 39 53 bd
       0.09548235 -0.08557817 0.1830796 -0.051568657

encoder.6.weight f4 [4, 8]
000000 99 2b 52 3e 3e 01 a0 be e9 60 47 be 7d ac 5b be
       0.20524444 -0.31250948 -0.19470562 -0.21452518
000010 d8 68 23 3e 14 3c 0e 3e 0e 4b 24 be 0d 4e 9b 3c
       0.15957963 0.13890105 -0.16044256 0.018958116
000020 68 22 74 3e 2c aa 93 3e 2b 82 1d be 54 e6 6c be
       0.2384125 0.28840768 -0.15381686 -0.23134738
000030 d0 89 88 3e 5e 72 89 be 7d dd ac be 05 a2 9e 3e
       0.26667643 -0.26845068 -0.33762732 0.30982986
000040 b4 b0 c3 bd 14 2a 9d be 0b fb ab be 6d db 86 3d
       -0.09555188 -0.30696166 -0.33589968 0.06584821
000050 20 cb 7d be 25 55 cd 3d d9 27 85 3e ca cc 47 3d
       -0.24784517 0.10026006 0.26006964 0.048779286
000060 ab a9 4f 3e f9 f8 10 be b3 68 9a be 54 7f 32 be
       0.20279567 -0.14157476 -0.30158004 -0.17431384
000070 da b7 32 3e 8a c9 9b 3e 57 d9 ae be e3 d9 5d 3e
       0.17452946 0.304272 -0.34150192 0.21665148

encoder.6.bias f4 [4]
000000 db 6a 79 3d bd 1f a1 be 43 6d 50 3e f1 21 a4 be
       0.06089292 -0.31469527 0.2035418 -0.32057145

encoder.8.weight f4 [2, 4]
000000 70 0f cb be 08 b3 43 3e b6 22 d7 3e 04 4a 0a be
       -0.39660215 0.19111264 0.4201867 -0.13504797
000010 52 e5 87 3e 14 b4 56 3e a8 ec 18 3e 24 b4 f2 3e
       0.26542145 0.20967132 0.14934027 0.4740306

encoder.8.bias f4 [2]
000000 50 31 7b 3d 3e 5f 93 be
       0.061326325 -0.28783602

decoder.0.weight f4 [4, 2]
000000 76 af e3 3e f5 80 ec bc 1b 47 01 3f 43 14 1a 3f
       0.44469804 -0.028870085 0.50499123 0.60187167
000010 7f 69 0a 3e 51 94 fc bc d9 71 02 bf ac 78 c4 be
       0.13516806 -0.030832442 -0.5095497 -0.38373315

decoder.0.bias f4 [4]
000000 1c f0 78 3e 54 e4 f0 bd 4b de ab be 35 ce 2e 3f
       0.24310344 -0.117623 -0.33568034 0.68283397

decoder.2.weight f4 [8, 4]
000000 7a af fd 3e fa 07 df 3e 00 31 ea bc a6 d2 f9 be
       0.4954794 0.43560773 -0.028587818 -0.48793525
000010 bc 79 6e be c0 a0 c7 3c 24 df 28 3e 10 57 7f 3d
       -0.23288625 0.024368644 0.16491371 0.06233889
000020 6c f6 1e be 40 85 d5 3d 78 f0 d2 3d 80 ee dd bc
       -0.1552369 0.10425806 0.10299772 -0.027091265
000030 48 02 90 be 80 8e 5f 3d 38 ee b4 bd c0 5e 17 bc
       -0.2812674 0.054579258 -0.08834499 -0.009238899
000040 10 a6 d1 3e 40 1b 1e bc 5c 95 bf be 9c 62 b4 3e
       0.40947008 -0.009650052 -0.3741864 0.35231483
000050 cc ab 5f be 2a b9 d7 3e fe c4 f8 3e 3e d5 f1 3e
       -0.21842879 0.42133456 0.48587793 0.47233003
000060 56 2c d0 be 6a 60 d6 be 1c ac 59 be 9c 04 d6 3e
       -0.40658826 -0.41870433 -0.21257061 0.41800392
000070 5e 5c a8 3e 74 77 ce be 30 08 b4 3e d4 c0 41 3e
       0.3288297 -0.4032551 0.35162497 0.18921214

decoder.2.bias f4 [8]
000000 b8 94 cd 3e be a3 c8 3e d0 46 e0 3e 70 7f 1f 3d
       0.40152526 0.39187425 0.43804026 0.038939893
000010 ba a3 bd be e8 cb 92 3e a0 1b 83 bc 02 9d e6 be
       -0.37038976 0.28671193 -0.016004384 -0.45041662

decoder.4.weight f4 [16, 8]
000000 86 53 7d 3e ef 59 b0 3e 9d 78 79 3e b2 8e 08 3e
       0.24738893 0.34443614 0.24362417 0.13335684
000010 89 6f 33 be f5 b1 8a be 83 e1 b7 bb bb be 8f 3e
       -0.17523016 -0.27088895 -0.0056116 0.28075203
000020 a0 3b 3e be f4 a8 18 be 5e fb 82 3e e9 f9 80 3e
       -0.18577433 -0.149082 0.25582403 0.25190666
000030 a8 8e 94 3e 39 0c d2 bd ee 4d b2 bd 03 4e d5 bd
       0.29015088 -0.102562375 -0.0870627 -0.1041527
000040 51 77 88 ba 84 36 41 bd 30 73 40 3e 8c bc 85 3e
       -0.0010411536 -0.04717113 0.1879394 0.26120412
000050 ba 1c 4e be 69 16 2a be 7a 6f 14 3e 88 1f f4 3d
       -0.20128146 -0.16610111 0.1449565 0.119200766
000060 8b 20 0c be cc 75 44 3e 78 41 b2 3e 04 9d 3a 3d
       -0.13684289 0.19185561 0.34815574 0.045559898
000070 4f 0d a6 be cb bc 98 bd 9f 3b a8 be 81 f6 11 3e
       -0.3243203 -0.074578844 -0.32857987 0.1425419
000080 b4 84 1a be aa 6e 99 be af c8 57 3e 5e db 6c be
       -0.15089685 -0.29967242 0.21072648 -0.23130557
000090 7c 27 e4 bd d2 5d 29 be 3c f2 2b bd 72 eb 4a 3e
       -0.111403435 -0.16539696 -0.04197906 0.19816378
0000a0 0b e1 ac 3e 03 a3 9b be 6e 61 83 be 4d 02 ef 3c
       0.33765444 -0.30397806 -0.2566027 0.029175902
0000b0 13 c5 37 3e 09 28 fd 3d 30 0e f8 bd 41 d6 78 3e
       0.17946272 0.12361152 -0.12112081 0.24300481
0000c0 7a 95 26 3e 5c 98 70 bc ea 7b 0e be 93 cc 5f be
       0.16267958 -0.014684763 -0.13914457 -0.21855383
0000d0 81 fe 37 bd 8d 9d 8e be 0f dd a0 bd 4b 53 ff 3d
       -0.04492045 -0.27854577 -0.078546636 0.12467059
0000e0 75 f6 88 be 2d c5 9a be cb 0b a3 be e2 b9 30 3d
       -0.26750532 -0.30228558 -0.31844935 0.04314602
0000f0 4a 10 52 be a5 4f 7b 3e 36 f7 af 3c 1e e6 a0 bc
       -0.20514026 0.245421 0.021480184 -0.019640978
000100 32 19 5a 3e 5f e9 9b be 07 0b 11 3e 34 c8 a2 be
       0.21298674 -0.30451486 0.14164363 -0.31793368
000110 76 42 6b be cd 24 3e 3e ea 9d b2 be 92 09 30 be
       -0.22974572 0.18568726 -0.34886104 -0.17191151
000120 15 13 0d be 12 08 b8 bd 2a fe 6b be 0c a0 db 3d
       -0.1377681 -0.08985914 -0.23046175 0.10723886
000130 d3 80 57 3d 68 c4 cd bd cf 40 a0 bd 47 5f a5 bc
       0.05261309 -0.10047227 -0.07824861 -0.020187033
000140 07 57 96 bc f0 60 70 bd 65 35 3e be 1d 66 06 be
       -0.018352045 -0.058686197 -0.18575056 -0.1312489
000150 1d 86 8e 3e ad 5a 09 3e 7b 09 69 3e 23 c7 98 3b
       0.27836695 0.13413496 0.22757523 0.004662411
000160 c3 73 5c 3e ef fb 6b bd f6 4f e5 3d a5 f9 58 be
       0.21528535 -0.05761331 0.11196892 -0.21188982
000170 7a 19 89 be c6 ed f2 bd c3 d5 3c 3e c6 c2 48 bd
       -0.2677725 -0.11861758 0.18440919 -0.049013875
000180 41 8b ae be 94 4b 97 be c2 d7 81 be 4c ed 6c 3e
       -0.34090617 -0.2954985 -0.25359923 0.23137397
000190 82 20 b2 3e a8 2f 73 3e 39 50 91 3d ec 08 4f be
       0.34790426 0.23748648 0.070953794 -0.20218247
0001a0 be 5f 40 be 64 c2 98 be 54 24 a5 be 2e 01 33 3e
       -0.18786523 -0.29835808 -0.3225428 0.17480919
0001b0 67 d3 8f 3b 74 5d 9d 3e ab ff 34 be 3c 44 42 3a
       0.004389215 0.30735362 -0.17675655 0.00074106804
0001c0 2c 35 62 3e f0 5b ae bc e2 a8 90 be d1 de 78 be
       0.22090596 -0.021284074 -0.28253847 -0.24303748
0001d0 84 9f 05 be 18 21 9d 3c 36 57 73 be df 7c 82 bd
       -0.13049132 0.01918082 -0.23763737 -0.063714735
0001e0 cf 2a 40 be 9f d1 9e 3d 93 2a 0c bd 95 70 b4 be
       -0.1876633 0.07754826 -0.03422029 -0.35242143
0001f0 c0 de 26 3e 25 1b 68 3e 75 d6 86 3e 67 08 77 3e
       0.1629591 0.22666605 0.26335493 0.24124299

decoder.4.bias f4 [16]
000000 04 7f ac be d2 2a 01 3e e0 6a 04 3c 16 f8 45 3e
       -0.33690655 0.12613991 0.008082122 0.19332919
000010 62 67 74 3e 25 7e 3f be a5 c4 28 be 1a 0a 8a bd
       0.23867562 -0.18700464 -0.16481264 -0.06740208
000020 5d f1 57 3e ec ed 69 be 41 8d 72 be 5c 1d 21 3d
       0.21088167 -0.22844666 -0.23686697 0.03933464
000030 4b fb a1 be 7b b4 fe bd 43 9b 29 be 99 2a c7 bd
       -0.31637034 -0.12436768 -0.16563134 -0.09724922

decoder.6.weight f4 [32, 16]
000000 80 a6 81 bd 6a dd 15 be 20 6f fe 3d 20 3e 22 bc
       -0.063305855 -0.14635244 0.12423539 -0.009902507
000010 30 cc 58 3e 2c d4 f2 bd 3c 4b ec 3d 1e c7 4a 3e
       0.21171641 -0.11856875 0.11537787 0.1980252
000020 04 c3 38 be 8c a4 07 be 24 f0 dd 3d 30 70 7c bd
       -0.18043143 -0.13246363 0.10836819 -0.061630428
000030 e8 c7 c5 bd 70 5e 68 bd a2 8a 46 3e c4 79 8a 3d
       -0.0965727 -0.056730688 0.19388822 0.06761506
000040 18 cd f5 3d 8c 82 b6 3d b4 67 94 3d 02 aa 0f be
       0.12002009 0.089116186 0.07246342 -0.14029697
000050 c8 63 65 be 92 c7 42 3e 30 e1 f7 3d f4 4a 48 be
       -0.22401345 0.19021443 0.12103498 -0.19559842
000060 b0 6f 34 be f0 09 67 3e 8c 2f 50 3e 9c 12 36 3e
       -0.1762073 0.22562385 0.20330638 0.17780536
000070 38 84 c5 bd 0c 09 19 be 00 60 e6 bc d8 e7 fa 3d
       -0.09644359 -0.14944857 -0.028121948 0.12251252
000080 f8 a2 6e bd 50 d9 d9 3c 78 e0 fc bd 98 07 48 be
       -0.058260888 0.02659288 -0.123475015 -0.19534147
000090 50 f0 de bc d8 47 5a 3e f4 c5 2a be a2 af 51 be
       -0.0272142 0.21316469 -0.16677076 -0.20477155
0000a0 d4 da ff 3d 58 4f 22 be 40 7f d0 3b f0 e8 95 bc
       0.1249291 -0.1585058 0.0063628256 -0.01829955
0000b0 7e 04 55 3e b6 3f 66 be c8 c5 71 3e fc 43 cf bd
       0.20802495 -0.22485241 0.23610604 -0.10120389
0000c0 1e 73 54 be 96 04 44 3e b0 0d b0 3d c0 ac bf 3b
       -0.20747039 0.19142374 0.08596361 0.005849451
0000d0 50 6e 47 3d 74 39 45 be e8 58 ea 3d 58 0a a1 3d
       0.048689187 -0.19260198 0.11442739 0.07863301
0000e0 76 bc 0a 3e d4 a6 20 3e a8 c7 a5 3d 70 35 3d bd
       0.13548455 0.1568864 0.08094722 -0.04619354
0000f0 a0 5e 76 bc 6e d6 50 be 78 bb b9 3d d8 f6 9f 3d
       -0.015037209 -0.20394298 0.0906896 0.078107536
000100 f8 87 eb bd 88 14 75 be 98 bd 28 bd 00 c9 78 3e
       -0.11500543 -0.23933613 -0.041196436 0.24295425
000110 5a 20 3b 3e 9a ea 57 3e 10 9b 67 bd a0 59 62 3e
       0.1827406 0.21085587 -0.056544363 0.22104502
000120 a0 27 05 3e 40 f9 74 3e c8 0f 20 bd 98 bd af bd
       0.13003397 0.23923206 -0.03907755 -0.08581084
000130 c0 32 19 3c 94 04 cf bd de 9c 77 be c6 e2 53 be
       0.009350479 -0.10108295 -0.24180934 -0.20691976
000140 80 65 d5 3c c4 74 7e 3e e0 22 34 be 02 cd 7f be
       0.026049376 0.2484923 -0.17591429 -0.24980548
000150 20 4a 16 bc 80 4e 3b bc 00 e6 81 bb 24 a5 1d be
       -0.009172946 -0.01143229 -0.0039641857 -0.15395027
000160 f4 55 65 be d0 65 20 be e4 95 a3 bd 08 a6 00 be
       -0.2239607 -0.15663838 -0.07987574 -0.12563336
000170 84 8b 9e bd 0a d2 2a 3e 84 a2 f5 3d 6c 00 80 bd
       -0.07741454 0.16681686 0.11993888 -0.062500805
000180 60 71 b9 3d 80 b3 ad 3c 30 c6 51 bd b0 6c fc 3d
       0.09054828 0.021203756 -0.051214397 0.12325418
000190 ee 4a 02 be 3e b3 16 3e 98 eb 10 bd 3e ec 02 3e
       -0.12723896 0.14716813 -0.03538093 0.12785432
0001a0 48 ed 2b be 7e ab 17 be ae e0 5c 3e 5c d1 d0 3d
       -0.16789734 -0.14811513 0.21570083 0.10196182
0001b0 44 31 82 bd d0 a2 4e be 00 2f 36 3d 32 8c 21 be
       -0.06357053 -0.20179296 0.044478416 -0.15776137
0001c0 d2 a1 35 3e 06 46 41 3e 20 88 35 3e 14 db 5c be
       0.17737511 0.18874368 0.17727709 -0.21567947
0001d0 ea 07 4f be 76 80 0f be a8 d4 f1 3d 48 b7 26 3d
       -0.20217863 -0.14013848 0.11808139 0.040702134
0001e0 20 1d e1 bc a0 94 c9 bc 30 46 ac bd 30 c8 b6 3c
       -0.027479708 -0.024607003 -0.08411825 0.022312254
0001f0 c4 4f bd bd e8 d0 7c bd 60 ef e8 3c dc b9 c5 3d
       -0.0924373 -0.061722666 0.028434455 0.096545905
000200 c0 2b fe 3d 60 f8 ca 3c 08 ca 3c bd dc 70 ce 3d
       0.124106884 0.024776638 -0.04609111 0.1008012
000210 6e 95 1d 3e be 19 27 3e 10 ca d3 bd 40 fe 27 bc
       0.15389034 0.16318414 -0.10341275 -0.010253489
000220 d0 46 30 bd c8 b7 36 3e 84 cd ba bd 90 0d 21 bd
       -0.043036282 0.17843544 -0.0912123 -0.039319575
000230 b8 55 98 3d 98 40 6d be f0 76 1d be 20 02 34 bd
       0.074382246 -0.23169172 -0.15377402 -0.04394734
000240 26 92 2d be 56 f0 23 3e 08 e7 7c be b4 e0 96 3d
       -0.16950282 0.1600965 -0.24697506 0.073670775
000250 e0 79 58 3c 86 37 1c be a6 59 77 be c0 de ed 3d
       0.013212651 -0.15255556 -0.24155292 0.11614752
000260 60 f1 19 3c 10 06 37 be a0 2f b2 bd b8 89 c4 3d
       0.009395927 -0.17873406 -0.0870049 0.0959658
000270 40 9d 9f bd 04 ec 0d 3e 90 03 f9 bd 70 99 11 3d
       -0.07793665 0.13859564 -0.121588826 0.03554672
000280 84 ec 0e be e6 fc 27 3e 48 d0 48 bd f6 9d 07 3e
       -0.13957411 0.16405067 -0.049026757 0.13243851
000290 92 26 21 3e 72 29 44 3e e8 c5 6d 3d 74 fa 86 3d
       0.1573737 0.19156435 0.058050066 0.06590739
0002a0 fa 17 73 be 7c e4 33 be 80 ce 7a 3e 54 d1 93 3d
       -0.23739615 -0.17567629 0.24492836 0.072176605
0002b0 5a 35 50 3e f6 9d 3a 3e 24 e2 70 3e 44 9f fc bd
       0.20332852 0.1822432 0.23523766 -0.12335065
0002c0 80 0d e0 3c 68 ab c4 3d 8c c9 aa bd 08 15 45 3e
       0.027350187 0.09603006 -0.08339223 0.19246304
0002d0 a8 8e 24 3d 40 46 80 3b e0 77 a4 bd ec f2 b2 3d
       0.04017511 0.0039146245 -0.08030677 0.0873774
0002e0 9c e1 63 3e c4 41 09 3e a8 66 bd 3d f8 28 0b 3e
       0.22254032 0.13403994 0.09248096 0.13589847
0002f0 b0 74 b8 bd 38 46 84 bd 10 ff 4a 3e ea 46 58 be
       -0.090066314 -0.06458706 0.19823861 -0.21120802
000300 88 a7 0f 3d 6c ee cd 3d 98 c6 48 bd a8 b4 b7 bd
       0.03507188 0.10055241 -0.04901752 -0.08970004
000310 6c 4a a4 bd d0 e0 fe bc f0 41 28 3d 54 86 b1 3d
       -0.08022007 -0.031113058 0.041078508 0.08668199
000320 fe aa 30 3e a6 b4 04 3e c0 27 ef bb e8 8a 35 3e
       0.17252728 0.12959537 -0.0072984397 0.1772877
000330 c8 81 63 be d0 2b 48 3d 2e e9 7b be fc 65 3e 3e
       -0.22217476 0.048869908 -0.2460067 0.18593591
000340 d0 9c 41 3d 42 a6 2a be 76 74 0d 3e 9c 96 dc bd
       0.04726869 -0.16664985 0.13813958 -0.10770914
000350 bc d0 21 be 6c ca 7f be 88 5e 0f 3d a0 f5 7f 3d
       -0.15802282 -0.24979562 0.03500226 0.062490106
000360 38 93 07 bd 3c 82 d7 3d e0 dd 7b 3c 20 d2 4b 3e
       -0.033099383 0.10522887 0.015372723 0.19904375
000370 96 70 3f 3e 60 7d 40 be d0 5e c2 bd 34 73 ed bd
       0.18695292 -0.18797827 -0.0949074 -0.11594239
000380 72 69 1b be 62 5c 3a 3e e0 82 5c 3d da e8 17 be
       -0.15176943 0.18199304 0.05383575 -0.1483492
000390 9c 90 e7 3d d8 8c 6a bd 30 c4 14 be f4 9d 57 be
       0.11306879 -0.057263225 -0.14527965 -0.21056348
0003a0 b8 62 30 bd de be 0c 3e a8 de c2 bd 3a f5 04 3e
       -0.043062896 0.13744685 -0.095151246 0.12984172
0003b0 82 7e 4c 3e 80 91 c6 bd 02 56 5c 3e 58 42 bd 3d
       0.19970134 -0.09695721 0.21517184 0.0924117
0003c0 0e 66 02 3e 66 9a 5a 3e 74 a2 65 be 0c 1e c7 bd
       0.12734243 0.21347961 -0.22425252 -0.09722528
0003d0 70 32 42 bd b8 d6 b0 3d d8 8a 1e be dc 94 f6 bd
       -0.047411382 0.08634704 -0.15482652 -0.120401114
0003e0 d0 d3 f1 bd c8 22 79 be 2e 10 49 be d8 3b 58 3e
       -0.11807978 -0.24329674 -0.19635078 0.21116579
0003f0 6c 7d 04 3e dc 90 2d 3e c8 a5 53 bd 6c 44 5a 3e
       0.1293847 0.1694979 -0.051671773 0.21315163

decoder.6.bias f4 [32]
000000 04 0a 01 3e 50 6a ca bd 70 08 9f bd e8 e5 ea 3d
       0.12601477 -0.09883559 -0.07765281 0.114696324
000010 a0 3b d2 3d cc ae 4a 3e fc ad 1d 3e 24 c3 34 3e
       0.10265279 0.19793242 0.15398401 0.17652565
000020 40 02 66 bd bc 38 34 be 1c 0e 7e 3e 50 fe fb 3c
       -0.05615449 -0.17599767 0.2481007 0.030760914
000030 10 a7 6c be 26 cf 4e be a2 d1 05 be b0 11 d1 bd
       -0.23110604 -0.20196208 -0.1306825 -0.10208452
000040 b0 5e 00 3e b0 63 c4 bc e0 04 42 3d a4 ad c6 bd
       0.1253612 -0.023973316 0.04736793 -0.09701088
000050 5c 23 0d 3e 10 fc 12 bd 00 ec f3 bd 10 fb b6 3c
       0.1378302 -0.035884917 -0.11910248 0.022336513
000060 00 b7 51 bd 3e f2 7f be 48 3b 67 3e 98 0c 29 3d
       -0.051199913 -0.24994752 0.22581208 0.041271776
000070 d2 49 76 be 10 c0 d2 3c a8 ce 47 3e a0 f8 32 3d
       -0.24051598 0.025726348 0.19512427 0.04369414

decoder.8.weight f4 [10, 32]
000000 22 e5 d1 3c e8 df 16 3e 09 7d 07 be f9 4d ed bc
       0.025621954 0.14733851 -0.13231291 -0.028967844
000010 62 bd 25 be 3c 82 25 3e 79 d7 09 be 80 d4 04 be
       -0.16185525 0.16162962 -0.13461103 -0.12971687
000020 f5 29 79 3d 04 b1 17 3e 3d 28 0b bd 27 6c 85 3d
       0.06083103 0.1481362 -0.03397392 0.06514769
000030 21 18 5f 3c 7a cf 15 3e 8d ea d0 bb 54 1c f6 bd
       0.013616593 0.14629927 -0.006375617 -0.12017122
000040 c3 cf 6b bd dd c4 b9 3c 54 78 04 3e b6 3b 4d bd
       -0.057571184 0.02267688 0.12936527 -0.050105773
000050 07 05 a2 bd 3c a5 b2 bc 88 62 fc bd 87 36 fe bd
       -0.07911115 -0.021807306 -0.12323481 -0.12412744
000060 30 e8 18 3e 5f 57 23 be dc e9 81 3d 0e 7a 28 3e
       0.14932323 -0.15951298 0.06343433 0.1645281
000070 53 c6 05 be 88 1e 1c be 89 db d0 3d ad a9 32 3e
       -0.13063936 -0.15246022 0.10198123 0.17447539
000080 8b 62 cc 3d 3f 83 bf ba cb c9 bb bd e4 e5 15 be
       0.09979733 -0.0014611258 -0.09169348 -0.14638478
000090 4f 8e 34 3d 3f ab 43 bd 8b 9f ed bd 82 c0 d7 bd
       0.04408103 -0.047770735 -0.11602696 -0.10534765
0000a0 2f 63 f8 bd 78 4b c4 bc d1 31 d7 3d 0e 12 35 3d
       -0.12128293 -0.023961768 0.105075486 0.04420667
0000b0 5e 38 35 3d 1c 53 82 bc f4 0d cc 3c 75 b7 c0 3d
       0.04424321 -0.01590877 0.024908997 0.09409992
0000c0 06 39 91 3b 91 c0 d0 3d 49 67 da bd ce 10 8d bd
       0.0044318466 0.10192979 -0.10664231 -0.06887971
0000d0 7d 2c e0 3d d3 71 84 3d d5 4f 94 3d 06 01 22 be
       0.109459855 0.06467023 0.07241789 -0.15820703
0000e0 a2 63 28 be 56 18 03 3e 38 50 f1 bd 6e 90 a8 bc
       -0.16444257 0.12802252 -0.11782879 -0.020576682
0000f0 ce ee 5f bd 01 d1 0f be a6 ae 20 3e bb 07 68 bd
       -0.0546711 -0.14044572 0.15691623 -0.056647997
000100 cf df c8 3d 7c 44 9f bd cf 8b 02 3c b5 6e ca bc
       0.09808313 -0.07776734 0.007967903 -0.024710992
000110 7c ff 17 3e f0 92 f1 3c 32 43 be 3c 33 14 a8 3c
       0.14843553 0.02948901 0.0232254 0.020517444
000120 e9 70 1a be 5e 41 24 be 87 8e 29 3e 13 bb 95 3d
       -0.15082134 -0.1604056 0.16558276 0.07311072
000130 c6 9b 61 3d 18 2d c1 bd 3d cb e5 3d 13 52 ef 3d
       0.055080198 -0.09432429 0.11220405 0.11685576
000140 c0 8d 5b 3d 25 53 a3 bd a5 53 25 be d6 79 1b be
       0.05360198 -0.07974843 -0.16145189 -0.15183195
000150 1a 35 3d bd 76 45 f6 3b 6b 10 13 3d 9b b8 90 3d
       -0.04619322 0.0075156046 0.03590433 0.07066461
000160 39 33 05 3e 71 b3 06 3e 6f a8 32 3e d0 9b ba 3d
       0.13007821 0.13154389 0.17447065 0.0911175
000170 b4 d7 06 be 51 61 d0 bd 01 d2 1d 3d fb e5 f9 bd
       -0.13168222 -0.10174812 0.038530353 -0.122020684
000180 97 c0 da bd 5c 7c 18 3d 08 33 87 bd 62 51 70 bd
       -0.10681265 0.037227973 -0.0660153 -0.058671363
000190 68 ce 0a 3e e5 3f a2 3c ba 35 15 3e 38 51 22 be
       0.135553 0.019805858 0.14571276 -0.15851295
0001a0 76 23 94 bd de 57 8d bd 78 f3 93 3d ba 5a ad 3a
       -0.07233326 -0.06901525 0.07224172 0.0013225891
0001b0 b5 b0 9a bd 83 8b 4c 3d d1 5e 1e be 7a 29 0f 3e
       -0.075532354 0.049937736 -0.15465857 0.13980666
0001c0 48 84 2f be 1b ab af bc a1 99 ff bc db 5d 66 bd
       -0.17140305 -0.021443894 -0.031201186 -0.05624185
0001d0 fd b8 2d be 1c 55 e5 bd 0b 60 0c 3e f3 ca 85 bd
       -0.16965099 -0.11197874 0.13708512 -0.0653285
0001e0 ae f5 2c 3d 77 5d 07 be bf ad 87 3d e3 45 da 3d
       0.042226486 -0.13219248 0.06624936 0.10657861
0001f0 78 fd c5 bd e6 e7 0e be 0d 4b b3 3d 56 01 1b be
       -0.09667486 -0.1395565 0.08754549 -0.15137228
000200 9e 53 e1 bd 24 05 00 bd 78 bc 97 3c fc 3b eb 3d
       -0.11002277 -0.031254902 0.018522486 0.114860505
000210 9c b5 c3 3c 7e 40 fa bc 8d 10 8b bd 17 03 03 3e
       0.023890309 -0.03054833 -0.06790266 0.12794147
000220 f8 25 62 bd 5e 5b 2a be 9d e6 27 3d fd 56 ed 3d
       -0.05521199 -0.16636416 0.040991414 0.11588857
000230 bf bb 2b 3e 43 c5 8f 3d bc 2f 0a be d1 c9 2f be
       0.16770838 0.070200466 -0.13494772 -0.1716683
000240 f1 b1 21 3d 80 27 fe bc 68 cf c3 3d d9 aa ae 3d
       0.03947634 -0.031024694 0.09561044 0.0852868
000250 da 9b 41 3d 1f fc da bd 48 b0 eb bd ae bb 37 3d
       0.047267772 -0.106926195 -0.11508232 0.04485672
000260 0c 0d dd 3a 7f d8 44 3c b6 0d 25 3e 03 2c 07 be
       0.001686485 0.012014507 0.16118512 -0.13200383
000270 a5 83 fe 3d 51 7b 34 be 8b 32 21 be 67 1d 05 be
       0.12427453 -0.17625166 -0.15741937 -0.12999497
000280 81 f9 01 bd 05 a6 c9 bc 5e 8e c9 3d 9c 61 51 3c
       -0.031732086 -0.024615297 0.098416075 0.01277962
000290 5e 57 33 be 6e 3f a8 bd 67 cc 1a be 42 fa a7 bd
       -0.17513797 -0.08215223 -0.15117036 -0.0820203
0002a0 35 28 f2 3d ed 81 ab 3d 8d 4f 04 3e f4 14 07 3e
       0.11824075 0.08374391 0.12920971 0.13191587
0002b0 fc 68 aa bd 68 75 a1 bd 1d 61 27 3e 1d 02 d4 bc
       -0.083208054 -0.078837216 0.1634564 -0.025879914
0002c0 ee 43 19 be 35 ac 9b 3d c6 84 95 bd 57 4b 1c be
       -0.1496732 0.07601205 -0.07300715 -0.15263115
0002d0 71 ba ec 3d 36 02 0c be d2 a7 de 3d cb 30 15 be
       0.115589984 -0.13672718 0.10871853 -0.14569394
0002e0 7d ef 21 be 93 02 9e bc 2b 7f 1e 3e 39 b8 ec 3d
       -0.15814014 -0.019288337 0.15478198 0.11558575
0002f0 ac 1c 8f bd 07 cc da 3d 7b c0 6d 3d 8b d5 2a be
       -0.069878906 0.106834464 0.05804489 -0.16683023
000300 bb f7 89 3d 97 32 17 3e ab fe 1d be 49 27 07 bd
       0.06736704 0.14765392 -0.1542918 -0.03299645
000310 21 c3 c8 bd 9e 51 95 3c d6 88 ee 3d 63 58 1e 3e
       -0.09802843 0.018227395 0.11647193 0.15463404
000320 ef 1f 1b 3d 90 9d d9 3d 89 d7 8d 3d ec dc b6 bd
       0.03787225 0.10625756 0.06925876 -0.08928856
000330 0d 77 32 3e 4e 0a f7 bd 06 e4 22 be bf 06 f5 bd
       0.17428227 -0.12062512 -0.15907297 -0.11964177
000340 3a 9b 36 bd 4d 97 e3 bd 27 fb a9 bd 39 80 c1 bd
       -0.04458163 -0.11112843 -0.08299857 -0.09448285
000350 a9 29 27 bd c7 07 ec bc 93 57 0b 3e 46 9f 0b 3e
       -0.040811215 -0.028812302 0.13607626 0.13634977
000360 f6 0b 94 bd 7c 8a 99 3d 07 8e d7 bd 58 6c ae bd
       -0.07228844 0.07497117 -0.105251364 -0.08516759
000370 73 ec 91 bd c3 df 40 bd f2 0e c0 bc d3 3e 2b 3e
       -0.07125177 -0.047088396 -0.023444626 0.16723184
000380 0d a3 fb bd be 2b 7a bd 0c 81 d2 3d 55 2e f7 bd
       -0.12286959 -0.061076872 0.1027852 -0.12069384
000390 b7 44 b0 bd b6 9a 33 be b5 c1 32 3e 97 de 9f 3d
       -0.08606856 -0.17539486 0.17456706 0.078061275
0003a0 f2 81 de 3d a3 59 4c 3d f4 9d 33 be 25 99 2b 3e
       0.10864629 0.04989017 -0.17540723 0.16757639
0003b0 7c b8 0d 3e de ec 19 3e b8 86 82 3d 53 fa 2f be
       0.13839906 0.15031764 0.06373352 -0.17185335
0003c0 f4 2c 25 3e 1d 6f 33 be d3 43 2b be a8 b1 4f 3d
       0.1613043 -0.17522855 -0.16725092 0.050706536
0003d0 6f 31 2b 3e 5e 92 a5 bd 0e 4b 93 3d 1f d5 c5 bd
       0.16718076 -0.08084558 0.0719205 -0.0965979
0003e0 64 5a 30 be 9d b6 fa bd 01 f0 92 bc d9 b7 e3 3d
       -0.17221981 -0.12241862 -0.017936708 0.111190505
0003f0 76 f9 1a bc 76 56 bc 3d 52 cb 86 3d b7 4b ff bd
       -0.00945889 0.091961786 0.06581749 -0.12465613

decoder.8.bias f4 [10]
000000 41 52 14 3e ef 1e 19 be 9b be 6c bd f2 af ab bd
       0.14484502 -0.14953206 -0.057798963 -0.08383168
000010 3b a5 cc bc 9e a5 f4 3d 99 df 96 bd d0 43 be 3d
       -0.024981132 0.119456515 -0.073668666 0.09290278
000020 ce 05 97 3d c8 e9 33 be
       0.07374154 -0.17569649
